add self supervised for edsr with multi-pooing spatial attention
EDSR_Zoom(
  (sub_mean): MeanShift(3, 3, kernel_size=(1, 1), stride=(1, 1))
  (add_mean): MeanShift(3, 3, kernel_size=(1, 1), stride=(1, 1))
  (model_ssl): EDSR_SSL(
    (sub_mean): MeanShift(3, 3, kernel_size=(1, 1), stride=(1, 1))
    (add_mean): MeanShift(3, 3, kernel_size=(1, 1), stride=(1, 1))
    (head): Sequential(
      (0): Conv2d(3, 64, kernel_size=(3, 3), stride=(1, 1), padding=(1, 1))
    )
    (body): Sequential(
      (0): RCABlock(
        (body): Sequential(
          (0): Conv2d(64, 64, kernel_size=(3, 3), stride=(1, 1), padding=(1, 1))
          (1): ReLU(inplace)
          (2): Conv2d(64, 64, kernel_size=(3, 3), stride=(1, 1), padding=(1, 1))
          (3): MultiPoolingSpatialAttn(
            (compress1): ChannelPool(
              (maxpool): AdaptiveMaxPool1d(output_size=1)
              (avgpool): AdaptiveAvgPool1d(output_size=1)
            )
            (compress2): ChannelPool(
              (maxpool): AdaptiveMaxPool1d(output_size=2)
              (avgpool): AdaptiveAvgPool1d(output_size=2)
            )
            (compress3): ChannelPool(
              (maxpool): AdaptiveMaxPool1d(output_size=4)
              (avgpool): AdaptiveAvgPool1d(output_size=4)
            )
            (spatial1): BasicConv(
              (conv): Conv2d(4, 8, kernel_size=(7, 7), stride=(1, 1), padding=(3, 3), bias=False)
              (bn): BatchNorm2d(8, eps=1e-05, momentum=0.01, affine=True, track_running_stats=True)
            )
            (spatial2): BasicConv(
              (conv): Conv2d(8, 8, kernel_size=(7, 7), stride=(1, 1), padding=(3, 3), bias=False)
              (bn): BatchNorm2d(8, eps=1e-05, momentum=0.01, affine=True, track_running_stats=True)
            )
            (spatial3): BasicConv(
              (conv): Conv2d(16, 8, kernel_size=(7, 7), stride=(1, 1), padding=(3, 3), bias=False)
              (bn): BatchNorm2d(8, eps=1e-05, momentum=0.01, affine=True, track_running_stats=True)
            )
          )
        )
      )
      (1): RCABlock(
        (body): Sequential(
          (0): Conv2d(64, 64, kernel_size=(3, 3), stride=(1, 1), padding=(1, 1))
          (1): ReLU(inplace)
          (2): Conv2d(64, 64, kernel_size=(3, 3), stride=(1, 1), padding=(1, 1))
          (3): MultiPoolingSpatialAttn(
            (compress1): ChannelPool(
              (maxpool): AdaptiveMaxPool1d(output_size=1)
              (avgpool): AdaptiveAvgPool1d(output_size=1)
            )
            (compress2): ChannelPool(
              (maxpool): AdaptiveMaxPool1d(output_size=2)
              (avgpool): AdaptiveAvgPool1d(output_size=2)
            )
            (compress3): ChannelPool(
              (maxpool): AdaptiveMaxPool1d(output_size=4)
              (avgpool): AdaptiveAvgPool1d(output_size=4)
            )
            (spatial1): BasicConv(
              (conv): Conv2d(4, 8, kernel_size=(7, 7), stride=(1, 1), padding=(3, 3), bias=False)
              (bn): BatchNorm2d(8, eps=1e-05, momentum=0.01, affine=True, track_running_stats=True)
            )
            (spatial2): BasicConv(
              (conv): Conv2d(8, 8, kernel_size=(7, 7), stride=(1, 1), padding=(3, 3), bias=False)
              (bn): BatchNorm2d(8, eps=1e-05, momentum=0.01, affine=True, track_running_stats=True)
            )
            (spatial3): BasicConv(
              (conv): Conv2d(16, 8, kernel_size=(7, 7), stride=(1, 1), padding=(3, 3), bias=False)
              (bn): BatchNorm2d(8, eps=1e-05, momentum=0.01, affine=True, track_running_stats=True)
            )
          )
        )
      )
      (2): RCABlock(
        (body): Sequential(
          (0): Conv2d(64, 64, kernel_size=(3, 3), stride=(1, 1), padding=(1, 1))
          (1): ReLU(inplace)
          (2): Conv2d(64, 64, kernel_size=(3, 3), stride=(1, 1), padding=(1, 1))
          (3): MultiPoolingSpatialAttn(
            (compress1): ChannelPool(
              (maxpool): AdaptiveMaxPool1d(output_size=1)
              (avgpool): AdaptiveAvgPool1d(output_size=1)
            )
            (compress2): ChannelPool(
              (maxpool): AdaptiveMaxPool1d(output_size=2)
              (avgpool): AdaptiveAvgPool1d(output_size=2)
            )
            (compress3): ChannelPool(
              (maxpool): AdaptiveMaxPool1d(output_size=4)
              (avgpool): AdaptiveAvgPool1d(output_size=4)
            )
            (spatial1): BasicConv(
              (conv): Conv2d(4, 8, kernel_size=(7, 7), stride=(1, 1), padding=(3, 3), bias=False)
              (bn): BatchNorm2d(8, eps=1e-05, momentum=0.01, affine=True, track_running_stats=True)
            )
            (spatial2): BasicConv(
              (conv): Conv2d(8, 8, kernel_size=(7, 7), stride=(1, 1), padding=(3, 3), bias=False)
              (bn): BatchNorm2d(8, eps=1e-05, momentum=0.01, affine=True, track_running_stats=True)
            )
            (spatial3): BasicConv(
              (conv): Conv2d(16, 8, kernel_size=(7, 7), stride=(1, 1), padding=(3, 3), bias=False)
              (bn): BatchNorm2d(8, eps=1e-05, momentum=0.01, affine=True, track_running_stats=True)
            )
          )
        )
      )
      (3): RCABlock(
        (body): Sequential(
          (0): Conv2d(64, 64, kernel_size=(3, 3), stride=(1, 1), padding=(1, 1))
          (1): ReLU(inplace)
          (2): Conv2d(64, 64, kernel_size=(3, 3), stride=(1, 1), padding=(1, 1))
          (3): MultiPoolingSpatialAttn(
            (compress1): ChannelPool(
              (maxpool): AdaptiveMaxPool1d(output_size=1)
              (avgpool): AdaptiveAvgPool1d(output_size=1)
            )
            (compress2): ChannelPool(
              (maxpool): AdaptiveMaxPool1d(output_size=2)
              (avgpool): AdaptiveAvgPool1d(output_size=2)
            )
            (compress3): ChannelPool(
              (maxpool): AdaptiveMaxPool1d(output_size=4)
              (avgpool): AdaptiveAvgPool1d(output_size=4)
            )
            (spatial1): BasicConv(
              (conv): Conv2d(4, 8, kernel_size=(7, 7), stride=(1, 1), padding=(3, 3), bias=False)
              (bn): BatchNorm2d(8, eps=1e-05, momentum=0.01, affine=True, track_running_stats=True)
            )
            (spatial2): BasicConv(
              (conv): Conv2d(8, 8, kernel_size=(7, 7), stride=(1, 1), padding=(3, 3), bias=False)
              (bn): BatchNorm2d(8, eps=1e-05, momentum=0.01, affine=True, track_running_stats=True)
            )
            (spatial3): BasicConv(
              (conv): Conv2d(16, 8, kernel_size=(7, 7), stride=(1, 1), padding=(3, 3), bias=False)
              (bn): BatchNorm2d(8, eps=1e-05, momentum=0.01, affine=True, track_running_stats=True)
            )
          )
        )
      )
      (4): RCABlock(
        (body): Sequential(
          (0): Conv2d(64, 64, kernel_size=(3, 3), stride=(1, 1), padding=(1, 1))
          (1): ReLU(inplace)
          (2): Conv2d(64, 64, kernel_size=(3, 3), stride=(1, 1), padding=(1, 1))
          (3): MultiPoolingSpatialAttn(
            (compress1): ChannelPool(
              (maxpool): AdaptiveMaxPool1d(output_size=1)
              (avgpool): AdaptiveAvgPool1d(output_size=1)
            )
            (compress2): ChannelPool(
              (maxpool): AdaptiveMaxPool1d(output_size=2)
              (avgpool): AdaptiveAvgPool1d(output_size=2)
            )
            (compress3): ChannelPool(
              (maxpool): AdaptiveMaxPool1d(output_size=4)
              (avgpool): AdaptiveAvgPool1d(output_size=4)
            )
            (spatial1): BasicConv(
              (conv): Conv2d(4, 8, kernel_size=(7, 7), stride=(1, 1), padding=(3, 3), bias=False)
              (bn): BatchNorm2d(8, eps=1e-05, momentum=0.01, affine=True, track_running_stats=True)
            )
            (spatial2): BasicConv(
              (conv): Conv2d(8, 8, kernel_size=(7, 7), stride=(1, 1), padding=(3, 3), bias=False)
              (bn): BatchNorm2d(8, eps=1e-05, momentum=0.01, affine=True, track_running_stats=True)
            )
            (spatial3): BasicConv(
              (conv): Conv2d(16, 8, kernel_size=(7, 7), stride=(1, 1), padding=(3, 3), bias=False)
              (bn): BatchNorm2d(8, eps=1e-05, momentum=0.01, affine=True, track_running_stats=True)
            )
          )
        )
      )
      (5): RCABlock(
        (body): Sequential(
          (0): Conv2d(64, 64, kernel_size=(3, 3), stride=(1, 1), padding=(1, 1))
          (1): ReLU(inplace)
          (2): Conv2d(64, 64, kernel_size=(3, 3), stride=(1, 1), padding=(1, 1))
          (3): MultiPoolingSpatialAttn(
            (compress1): ChannelPool(
              (maxpool): AdaptiveMaxPool1d(output_size=1)
              (avgpool): AdaptiveAvgPool1d(output_size=1)
            )
            (compress2): ChannelPool(
              (maxpool): AdaptiveMaxPool1d(output_size=2)
              (avgpool): AdaptiveAvgPool1d(output_size=2)
            )
            (compress3): ChannelPool(
              (maxpool): AdaptiveMaxPool1d(output_size=4)
              (avgpool): AdaptiveAvgPool1d(output_size=4)
            )
            (spatial1): BasicConv(
              (conv): Conv2d(4, 8, kernel_size=(7, 7), stride=(1, 1), padding=(3, 3), bias=False)
              (bn): BatchNorm2d(8, eps=1e-05, momentum=0.01, affine=True, track_running_stats=True)
            )
            (spatial2): BasicConv(
              (conv): Conv2d(8, 8, kernel_size=(7, 7), stride=(1, 1), padding=(3, 3), bias=False)
              (bn): BatchNorm2d(8, eps=1e-05, momentum=0.01, affine=True, track_running_stats=True)
            )
            (spatial3): BasicConv(
              (conv): Conv2d(16, 8, kernel_size=(7, 7), stride=(1, 1), padding=(3, 3), bias=False)
              (bn): BatchNorm2d(8, eps=1e-05, momentum=0.01, affine=True, track_running_stats=True)
            )
          )
        )
      )
      (6): RCABlock(
        (body): Sequential(
          (0): Conv2d(64, 64, kernel_size=(3, 3), stride=(1, 1), padding=(1, 1))
          (1): ReLU(inplace)
          (2): Conv2d(64, 64, kernel_size=(3, 3), stride=(1, 1), padding=(1, 1))
          (3): MultiPoolingSpatialAttn(
            (compress1): ChannelPool(
              (maxpool): AdaptiveMaxPool1d(output_size=1)
              (avgpool): AdaptiveAvgPool1d(output_size=1)
            )
            (compress2): ChannelPool(
              (maxpool): AdaptiveMaxPool1d(output_size=2)
              (avgpool): AdaptiveAvgPool1d(output_size=2)
            )
            (compress3): ChannelPool(
              (maxpool): AdaptiveMaxPool1d(output_size=4)
              (avgpool): AdaptiveAvgPool1d(output_size=4)
            )
            (spatial1): BasicConv(
              (conv): Conv2d(4, 8, kernel_size=(7, 7), stride=(1, 1), padding=(3, 3), bias=False)
              (bn): BatchNorm2d(8, eps=1e-05, momentum=0.01, affine=True, track_running_stats=True)
            )
            (spatial2): BasicConv(
              (conv): Conv2d(8, 8, kernel_size=(7, 7), stride=(1, 1), padding=(3, 3), bias=False)
              (bn): BatchNorm2d(8, eps=1e-05, momentum=0.01, affine=True, track_running_stats=True)
            )
            (spatial3): BasicConv(
              (conv): Conv2d(16, 8, kernel_size=(7, 7), stride=(1, 1), padding=(3, 3), bias=False)
              (bn): BatchNorm2d(8, eps=1e-05, momentum=0.01, affine=True, track_running_stats=True)
            )
          )
        )
      )
      (7): RCABlock(
        (body): Sequential(
          (0): Conv2d(64, 64, kernel_size=(3, 3), stride=(1, 1), padding=(1, 1))
          (1): ReLU(inplace)
          (2): Conv2d(64, 64, kernel_size=(3, 3), stride=(1, 1), padding=(1, 1))
          (3): MultiPoolingSpatialAttn(
            (compress1): ChannelPool(
              (maxpool): AdaptiveMaxPool1d(output_size=1)
              (avgpool): AdaptiveAvgPool1d(output_size=1)
            )
            (compress2): ChannelPool(
              (maxpool): AdaptiveMaxPool1d(output_size=2)
              (avgpool): AdaptiveAvgPool1d(output_size=2)
            )
            (compress3): ChannelPool(
              (maxpool): AdaptiveMaxPool1d(output_size=4)
              (avgpool): AdaptiveAvgPool1d(output_size=4)
            )
            (spatial1): BasicConv(
              (conv): Conv2d(4, 8, kernel_size=(7, 7), stride=(1, 1), padding=(3, 3), bias=False)
              (bn): BatchNorm2d(8, eps=1e-05, momentum=0.01, affine=True, track_running_stats=True)
            )
            (spatial2): BasicConv(
              (conv): Conv2d(8, 8, kernel_size=(7, 7), stride=(1, 1), padding=(3, 3), bias=False)
              (bn): BatchNorm2d(8, eps=1e-05, momentum=0.01, affine=True, track_running_stats=True)
            )
            (spatial3): BasicConv(
              (conv): Conv2d(16, 8, kernel_size=(7, 7), stride=(1, 1), padding=(3, 3), bias=False)
              (bn): BatchNorm2d(8, eps=1e-05, momentum=0.01, affine=True, track_running_stats=True)
            )
          )
        )
      )
      (8): RCABlock(
        (body): Sequential(
          (0): Conv2d(64, 64, kernel_size=(3, 3), stride=(1, 1), padding=(1, 1))
          (1): ReLU(inplace)
          (2): Conv2d(64, 64, kernel_size=(3, 3), stride=(1, 1), padding=(1, 1))
          (3): MultiPoolingSpatialAttn(
            (compress1): ChannelPool(
              (maxpool): AdaptiveMaxPool1d(output_size=1)
              (avgpool): AdaptiveAvgPool1d(output_size=1)
            )
            (compress2): ChannelPool(
              (maxpool): AdaptiveMaxPool1d(output_size=2)
              (avgpool): AdaptiveAvgPool1d(output_size=2)
            )
            (compress3): ChannelPool(
              (maxpool): AdaptiveMaxPool1d(output_size=4)
              (avgpool): AdaptiveAvgPool1d(output_size=4)
            )
            (spatial1): BasicConv(
              (conv): Conv2d(4, 8, kernel_size=(7, 7), stride=(1, 1), padding=(3, 3), bias=False)
              (bn): BatchNorm2d(8, eps=1e-05, momentum=0.01, affine=True, track_running_stats=True)
            )
            (spatial2): BasicConv(
              (conv): Conv2d(8, 8, kernel_size=(7, 7), stride=(1, 1), padding=(3, 3), bias=False)
              (bn): BatchNorm2d(8, eps=1e-05, momentum=0.01, affine=True, track_running_stats=True)
            )
            (spatial3): BasicConv(
              (conv): Conv2d(16, 8, kernel_size=(7, 7), stride=(1, 1), padding=(3, 3), bias=False)
              (bn): BatchNorm2d(8, eps=1e-05, momentum=0.01, affine=True, track_running_stats=True)
            )
          )
        )
      )
      (9): RCABlock(
        (body): Sequential(
          (0): Conv2d(64, 64, kernel_size=(3, 3), stride=(1, 1), padding=(1, 1))
          (1): ReLU(inplace)
          (2): Conv2d(64, 64, kernel_size=(3, 3), stride=(1, 1), padding=(1, 1))
          (3): MultiPoolingSpatialAttn(
            (compress1): ChannelPool(
              (maxpool): AdaptiveMaxPool1d(output_size=1)
              (avgpool): AdaptiveAvgPool1d(output_size=1)
            )
            (compress2): ChannelPool(
              (maxpool): AdaptiveMaxPool1d(output_size=2)
              (avgpool): AdaptiveAvgPool1d(output_size=2)
            )
            (compress3): ChannelPool(
              (maxpool): AdaptiveMaxPool1d(output_size=4)
              (avgpool): AdaptiveAvgPool1d(output_size=4)
            )
            (spatial1): BasicConv(
              (conv): Conv2d(4, 8, kernel_size=(7, 7), stride=(1, 1), padding=(3, 3), bias=False)
              (bn): BatchNorm2d(8, eps=1e-05, momentum=0.01, affine=True, track_running_stats=True)
            )
            (spatial2): BasicConv(
              (conv): Conv2d(8, 8, kernel_size=(7, 7), stride=(1, 1), padding=(3, 3), bias=False)
              (bn): BatchNorm2d(8, eps=1e-05, momentum=0.01, affine=True, track_running_stats=True)
            )
            (spatial3): BasicConv(
              (conv): Conv2d(16, 8, kernel_size=(7, 7), stride=(1, 1), padding=(3, 3), bias=False)
              (bn): BatchNorm2d(8, eps=1e-05, momentum=0.01, affine=True, track_running_stats=True)
            )
          )
        )
      )
      (10): RCABlock(
        (body): Sequential(
          (0): Conv2d(64, 64, kernel_size=(3, 3), stride=(1, 1), padding=(1, 1))
          (1): ReLU(inplace)
          (2): Conv2d(64, 64, kernel_size=(3, 3), stride=(1, 1), padding=(1, 1))
          (3): MultiPoolingSpatialAttn(
            (compress1): ChannelPool(
              (maxpool): AdaptiveMaxPool1d(output_size=1)
              (avgpool): AdaptiveAvgPool1d(output_size=1)
            )
            (compress2): ChannelPool(
              (maxpool): AdaptiveMaxPool1d(output_size=2)
              (avgpool): AdaptiveAvgPool1d(output_size=2)
            )
            (compress3): ChannelPool(
              (maxpool): AdaptiveMaxPool1d(output_size=4)
              (avgpool): AdaptiveAvgPool1d(output_size=4)
            )
            (spatial1): BasicConv(
              (conv): Conv2d(4, 8, kernel_size=(7, 7), stride=(1, 1), padding=(3, 3), bias=False)
              (bn): BatchNorm2d(8, eps=1e-05, momentum=0.01, affine=True, track_running_stats=True)
            )
            (spatial2): BasicConv(
              (conv): Conv2d(8, 8, kernel_size=(7, 7), stride=(1, 1), padding=(3, 3), bias=False)
              (bn): BatchNorm2d(8, eps=1e-05, momentum=0.01, affine=True, track_running_stats=True)
            )
            (spatial3): BasicConv(
              (conv): Conv2d(16, 8, kernel_size=(7, 7), stride=(1, 1), padding=(3, 3), bias=False)
              (bn): BatchNorm2d(8, eps=1e-05, momentum=0.01, affine=True, track_running_stats=True)
            )
          )
        )
      )
      (11): RCABlock(
        (body): Sequential(
          (0): Conv2d(64, 64, kernel_size=(3, 3), stride=(1, 1), padding=(1, 1))
          (1): ReLU(inplace)
          (2): Conv2d(64, 64, kernel_size=(3, 3), stride=(1, 1), padding=(1, 1))
          (3): MultiPoolingSpatialAttn(
            (compress1): ChannelPool(
              (maxpool): AdaptiveMaxPool1d(output_size=1)
              (avgpool): AdaptiveAvgPool1d(output_size=1)
            )
            (compress2): ChannelPool(
              (maxpool): AdaptiveMaxPool1d(output_size=2)
              (avgpool): AdaptiveAvgPool1d(output_size=2)
            )
            (compress3): ChannelPool(
              (maxpool): AdaptiveMaxPool1d(output_size=4)
              (avgpool): AdaptiveAvgPool1d(output_size=4)
            )
            (spatial1): BasicConv(
              (conv): Conv2d(4, 8, kernel_size=(7, 7), stride=(1, 1), padding=(3, 3), bias=False)
              (bn): BatchNorm2d(8, eps=1e-05, momentum=0.01, affine=True, track_running_stats=True)
            )
            (spatial2): BasicConv(
              (conv): Conv2d(8, 8, kernel_size=(7, 7), stride=(1, 1), padding=(3, 3), bias=False)
              (bn): BatchNorm2d(8, eps=1e-05, momentum=0.01, affine=True, track_running_stats=True)
            )
            (spatial3): BasicConv(
              (conv): Conv2d(16, 8, kernel_size=(7, 7), stride=(1, 1), padding=(3, 3), bias=False)
              (bn): BatchNorm2d(8, eps=1e-05, momentum=0.01, affine=True, track_running_stats=True)
            )
          )
        )
      )
      (12): RCABlock(
        (body): Sequential(
          (0): Conv2d(64, 64, kernel_size=(3, 3), stride=(1, 1), padding=(1, 1))
          (1): ReLU(inplace)
          (2): Conv2d(64, 64, kernel_size=(3, 3), stride=(1, 1), padding=(1, 1))
          (3): MultiPoolingSpatialAttn(
            (compress1): ChannelPool(
              (maxpool): AdaptiveMaxPool1d(output_size=1)
              (avgpool): AdaptiveAvgPool1d(output_size=1)
            )
            (compress2): ChannelPool(
              (maxpool): AdaptiveMaxPool1d(output_size=2)
              (avgpool): AdaptiveAvgPool1d(output_size=2)
            )
            (compress3): ChannelPool(
              (maxpool): AdaptiveMaxPool1d(output_size=4)
              (avgpool): AdaptiveAvgPool1d(output_size=4)
            )
            (spatial1): BasicConv(
              (conv): Conv2d(4, 8, kernel_size=(7, 7), stride=(1, 1), padding=(3, 3), bias=False)
              (bn): BatchNorm2d(8, eps=1e-05, momentum=0.01, affine=True, track_running_stats=True)
            )
            (spatial2): BasicConv(
              (conv): Conv2d(8, 8, kernel_size=(7, 7), stride=(1, 1), padding=(3, 3), bias=False)
              (bn): BatchNorm2d(8, eps=1e-05, momentum=0.01, affine=True, track_running_stats=True)
            )
            (spatial3): BasicConv(
              (conv): Conv2d(16, 8, kernel_size=(7, 7), stride=(1, 1), padding=(3, 3), bias=False)
              (bn): BatchNorm2d(8, eps=1e-05, momentum=0.01, affine=True, track_running_stats=True)
            )
          )
        )
      )
      (13): RCABlock(
        (body): Sequential(
          (0): Conv2d(64, 64, kernel_size=(3, 3), stride=(1, 1), padding=(1, 1))
          (1): ReLU(inplace)
          (2): Conv2d(64, 64, kernel_size=(3, 3), stride=(1, 1), padding=(1, 1))
          (3): MultiPoolingSpatialAttn(
            (compress1): ChannelPool(
              (maxpool): AdaptiveMaxPool1d(output_size=1)
              (avgpool): AdaptiveAvgPool1d(output_size=1)
            )
            (compress2): ChannelPool(
              (maxpool): AdaptiveMaxPool1d(output_size=2)
              (avgpool): AdaptiveAvgPool1d(output_size=2)
            )
            (compress3): ChannelPool(
              (maxpool): AdaptiveMaxPool1d(output_size=4)
              (avgpool): AdaptiveAvgPool1d(output_size=4)
            )
            (spatial1): BasicConv(
              (conv): Conv2d(4, 8, kernel_size=(7, 7), stride=(1, 1), padding=(3, 3), bias=False)
              (bn): BatchNorm2d(8, eps=1e-05, momentum=0.01, affine=True, track_running_stats=True)
            )
            (spatial2): BasicConv(
              (conv): Conv2d(8, 8, kernel_size=(7, 7), stride=(1, 1), padding=(3, 3), bias=False)
              (bn): BatchNorm2d(8, eps=1e-05, momentum=0.01, affine=True, track_running_stats=True)
            )
            (spatial3): BasicConv(
              (conv): Conv2d(16, 8, kernel_size=(7, 7), stride=(1, 1), padding=(3, 3), bias=False)
              (bn): BatchNorm2d(8, eps=1e-05, momentum=0.01, affine=True, track_running_stats=True)
            )
          )
        )
      )
      (14): RCABlock(
        (body): Sequential(
          (0): Conv2d(64, 64, kernel_size=(3, 3), stride=(1, 1), padding=(1, 1))
          (1): ReLU(inplace)
          (2): Conv2d(64, 64, kernel_size=(3, 3), stride=(1, 1), padding=(1, 1))
          (3): MultiPoolingSpatialAttn(
            (compress1): ChannelPool(
              (maxpool): AdaptiveMaxPool1d(output_size=1)
              (avgpool): AdaptiveAvgPool1d(output_size=1)
            )
            (compress2): ChannelPool(
              (maxpool): AdaptiveMaxPool1d(output_size=2)
              (avgpool): AdaptiveAvgPool1d(output_size=2)
            )
            (compress3): ChannelPool(
              (maxpool): AdaptiveMaxPool1d(output_size=4)
              (avgpool): AdaptiveAvgPool1d(output_size=4)
            )
            (spatial1): BasicConv(
              (conv): Conv2d(4, 8, kernel_size=(7, 7), stride=(1, 1), padding=(3, 3), bias=False)
              (bn): BatchNorm2d(8, eps=1e-05, momentum=0.01, affine=True, track_running_stats=True)
            )
            (spatial2): BasicConv(
              (conv): Conv2d(8, 8, kernel_size=(7, 7), stride=(1, 1), padding=(3, 3), bias=False)
              (bn): BatchNorm2d(8, eps=1e-05, momentum=0.01, affine=True, track_running_stats=True)
            )
            (spatial3): BasicConv(
              (conv): Conv2d(16, 8, kernel_size=(7, 7), stride=(1, 1), padding=(3, 3), bias=False)
              (bn): BatchNorm2d(8, eps=1e-05, momentum=0.01, affine=True, track_running_stats=True)
            )
          )
        )
      )
      (15): RCABlock(
        (body): Sequential(
          (0): Conv2d(64, 64, kernel_size=(3, 3), stride=(1, 1), padding=(1, 1))
          (1): ReLU(inplace)
          (2): Conv2d(64, 64, kernel_size=(3, 3), stride=(1, 1), padding=(1, 1))
          (3): MultiPoolingSpatialAttn(
            (compress1): ChannelPool(
              (maxpool): AdaptiveMaxPool1d(output_size=1)
              (avgpool): AdaptiveAvgPool1d(output_size=1)
            )
            (compress2): ChannelPool(
              (maxpool): AdaptiveMaxPool1d(output_size=2)
              (avgpool): AdaptiveAvgPool1d(output_size=2)
            )
            (compress3): ChannelPool(
              (maxpool): AdaptiveMaxPool1d(output_size=4)
              (avgpool): AdaptiveAvgPool1d(output_size=4)
            )
            (spatial1): BasicConv(
              (conv): Conv2d(4, 8, kernel_size=(7, 7), stride=(1, 1), padding=(3, 3), bias=False)
              (bn): BatchNorm2d(8, eps=1e-05, momentum=0.01, affine=True, track_running_stats=True)
            )
            (spatial2): BasicConv(
              (conv): Conv2d(8, 8, kernel_size=(7, 7), stride=(1, 1), padding=(3, 3), bias=False)
              (bn): BatchNorm2d(8, eps=1e-05, momentum=0.01, affine=True, track_running_stats=True)
            )
            (spatial3): BasicConv(
              (conv): Conv2d(16, 8, kernel_size=(7, 7), stride=(1, 1), padding=(3, 3), bias=False)
              (bn): BatchNorm2d(8, eps=1e-05, momentum=0.01, affine=True, track_running_stats=True)
            )
          )
        )
      )
      (16): Conv2d(64, 64, kernel_size=(3, 3), stride=(1, 1), padding=(1, 1))
    )
    (tail): Sequential(
      (0): Upsampler(
        (0): Conv2d(64, 256, kernel_size=(3, 3), stride=(1, 1), padding=(1, 1))
        (1): PixelShuffle(upscale_factor=2)
        (2): ReLU(inplace)
        (3): Conv2d(64, 256, kernel_size=(3, 3), stride=(1, 1), padding=(1, 1))
        (4): PixelShuffle(upscale_factor=2)
        (5): ReLU(inplace)
      )
      (1): Conv2d(64, 3, kernel_size=(3, 3), stride=(1, 1), padding=(1, 1))
    )
  )
  (CALayer_head): MultiPoolingSpatialAttn(
    (compress1): ChannelPool(
      (maxpool): AdaptiveMaxPool1d(output_size=1)
      (avgpool): AdaptiveAvgPool1d(output_size=1)
    )
    (compress2): ChannelPool(
      (maxpool): AdaptiveMaxPool1d(output_size=2)
      (avgpool): AdaptiveAvgPool1d(output_size=2)
    )
    (compress3): ChannelPool(
      (maxpool): AdaptiveMaxPool1d(output_size=4)
      (avgpool): AdaptiveAvgPool1d(output_size=4)
    )
    (spatial1): BasicConv(
      (conv): Conv2d(4, 8, kernel_size=(7, 7), stride=(1, 1), padding=(3, 3), bias=False)
      (bn): BatchNorm2d(8, eps=1e-05, momentum=0.01, affine=True, track_running_stats=True)
    )
    (spatial2): BasicConv(
      (conv): Conv2d(8, 8, kernel_size=(7, 7), stride=(1, 1), padding=(3, 3), bias=False)
      (bn): BatchNorm2d(8, eps=1e-05, momentum=0.01, affine=True, track_running_stats=True)
    )
    (spatial3): BasicConv(
      (conv): Conv2d(16, 8, kernel_size=(7, 7), stride=(1, 1), padding=(3, 3), bias=False)
      (bn): BatchNorm2d(8, eps=1e-05, momentum=0.01, affine=True, track_running_stats=True)
    )
  )
  (CALayer_tail): MultiPoolingSpatialAttn(
    (compress1): ChannelPool(
      (maxpool): AdaptiveMaxPool1d(output_size=1)
      (avgpool): AdaptiveAvgPool1d(output_size=1)
    )
    (compress2): ChannelPool(
      (maxpool): AdaptiveMaxPool1d(output_size=2)
      (avgpool): AdaptiveAvgPool1d(output_size=2)
    )
    (compress3): ChannelPool(
      (maxpool): AdaptiveMaxPool1d(output_size=4)
      (avgpool): AdaptiveAvgPool1d(output_size=4)
    )
    (spatial1): BasicConv(
      (conv): Conv2d(4, 8, kernel_size=(7, 7), stride=(1, 1), padding=(3, 3), bias=False)
      (bn): BatchNorm2d(8, eps=1e-05, momentum=0.01, affine=True, track_running_stats=True)
    )
    (spatial2): BasicConv(
      (conv): Conv2d(8, 8, kernel_size=(7, 7), stride=(1, 1), padding=(3, 3), bias=False)
      (bn): BatchNorm2d(8, eps=1e-05, momentum=0.01, affine=True, track_running_stats=True)
    )
    (spatial3): BasicConv(
      (conv): Conv2d(16, 8, kernel_size=(7, 7), stride=(1, 1), padding=(3, 3), bias=False)
      (bn): BatchNorm2d(8, eps=1e-05, momentum=0.01, affine=True, track_running_stats=True)
    )
  )
  (head): Sequential(
    (0): Conv2d(3, 64, kernel_size=(3, 3), stride=(1, 1), padding=(1, 1))
  )
  (body): Sequential(
    (0): RCABlock(
      (body): Sequential(
        (0): Conv2d(64, 64, kernel_size=(3, 3), stride=(1, 1), padding=(1, 1))
        (1): ReLU(inplace)
        (2): Conv2d(64, 64, kernel_size=(3, 3), stride=(1, 1), padding=(1, 1))
        (3): MultiPoolingSpatialAttn(
          (compress1): ChannelPool(
            (maxpool): AdaptiveMaxPool1d(output_size=1)
            (avgpool): AdaptiveAvgPool1d(output_size=1)
          )
          (compress2): ChannelPool(
            (maxpool): AdaptiveMaxPool1d(output_size=2)
            (avgpool): AdaptiveAvgPool1d(output_size=2)
          )
          (compress3): ChannelPool(
            (maxpool): AdaptiveMaxPool1d(output_size=4)
            (avgpool): AdaptiveAvgPool1d(output_size=4)
          )
          (spatial1): BasicConv(
            (conv): Conv2d(4, 8, kernel_size=(7, 7), stride=(1, 1), padding=(3, 3), bias=False)
            (bn): BatchNorm2d(8, eps=1e-05, momentum=0.01, affine=True, track_running_stats=True)
          )
          (spatial2): BasicConv(
            (conv): Conv2d(8, 8, kernel_size=(7, 7), stride=(1, 1), padding=(3, 3), bias=False)
            (bn): BatchNorm2d(8, eps=1e-05, momentum=0.01, affine=True, track_running_stats=True)
          )
          (spatial3): BasicConv(
            (conv): Conv2d(16, 8, kernel_size=(7, 7), stride=(1, 1), padding=(3, 3), bias=False)
            (bn): BatchNorm2d(8, eps=1e-05, momentum=0.01, affine=True, track_running_stats=True)
          )
        )
      )
    )
    (1): RCABlock(
      (body): Sequential(
        (0): Conv2d(64, 64, kernel_size=(3, 3), stride=(1, 1), padding=(1, 1))
        (1): ReLU(inplace)
        (2): Conv2d(64, 64, kernel_size=(3, 3), stride=(1, 1), padding=(1, 1))
        (3): MultiPoolingSpatialAttn(
          (compress1): ChannelPool(
            (maxpool): AdaptiveMaxPool1d(output_size=1)
            (avgpool): AdaptiveAvgPool1d(output_size=1)
          )
          (compress2): ChannelPool(
            (maxpool): AdaptiveMaxPool1d(output_size=2)
            (avgpool): AdaptiveAvgPool1d(output_size=2)
          )
          (compress3): ChannelPool(
            (maxpool): AdaptiveMaxPool1d(output_size=4)
            (avgpool): AdaptiveAvgPool1d(output_size=4)
          )
          (spatial1): BasicConv(
            (conv): Conv2d(4, 8, kernel_size=(7, 7), stride=(1, 1), padding=(3, 3), bias=False)
            (bn): BatchNorm2d(8, eps=1e-05, momentum=0.01, affine=True, track_running_stats=True)
          )
          (spatial2): BasicConv(
            (conv): Conv2d(8, 8, kernel_size=(7, 7), stride=(1, 1), padding=(3, 3), bias=False)
            (bn): BatchNorm2d(8, eps=1e-05, momentum=0.01, affine=True, track_running_stats=True)
          )
          (spatial3): BasicConv(
            (conv): Conv2d(16, 8, kernel_size=(7, 7), stride=(1, 1), padding=(3, 3), bias=False)
            (bn): BatchNorm2d(8, eps=1e-05, momentum=0.01, affine=True, track_running_stats=True)
          )
        )
      )
    )
    (2): RCABlock(
      (body): Sequential(
        (0): Conv2d(64, 64, kernel_size=(3, 3), stride=(1, 1), padding=(1, 1))
        (1): ReLU(inplace)
        (2): Conv2d(64, 64, kernel_size=(3, 3), stride=(1, 1), padding=(1, 1))
        (3): MultiPoolingSpatialAttn(
          (compress1): ChannelPool(
            (maxpool): AdaptiveMaxPool1d(output_size=1)
            (avgpool): AdaptiveAvgPool1d(output_size=1)
          )
          (compress2): ChannelPool(
            (maxpool): AdaptiveMaxPool1d(output_size=2)
            (avgpool): AdaptiveAvgPool1d(output_size=2)
          )
          (compress3): ChannelPool(
            (maxpool): AdaptiveMaxPool1d(output_size=4)
            (avgpool): AdaptiveAvgPool1d(output_size=4)
          )
          (spatial1): BasicConv(
            (conv): Conv2d(4, 8, kernel_size=(7, 7), stride=(1, 1), padding=(3, 3), bias=False)
            (bn): BatchNorm2d(8, eps=1e-05, momentum=0.01, affine=True, track_running_stats=True)
          )
          (spatial2): BasicConv(
            (conv): Conv2d(8, 8, kernel_size=(7, 7), stride=(1, 1), padding=(3, 3), bias=False)
            (bn): BatchNorm2d(8, eps=1e-05, momentum=0.01, affine=True, track_running_stats=True)
          )
          (spatial3): BasicConv(
            (conv): Conv2d(16, 8, kernel_size=(7, 7), stride=(1, 1), padding=(3, 3), bias=False)
            (bn): BatchNorm2d(8, eps=1e-05, momentum=0.01, affine=True, track_running_stats=True)
          )
        )
      )
    )
    (3): RCABlock(
      (body): Sequential(
        (0): Conv2d(64, 64, kernel_size=(3, 3), stride=(1, 1), padding=(1, 1))
        (1): ReLU(inplace)
        (2): Conv2d(64, 64, kernel_size=(3, 3), stride=(1, 1), padding=(1, 1))
        (3): MultiPoolingSpatialAttn(
          (compress1): ChannelPool(
            (maxpool): AdaptiveMaxPool1d(output_size=1)
            (avgpool): AdaptiveAvgPool1d(output_size=1)
          )
          (compress2): ChannelPool(
            (maxpool): AdaptiveMaxPool1d(output_size=2)
            (avgpool): AdaptiveAvgPool1d(output_size=2)
          )
          (compress3): ChannelPool(
            (maxpool): AdaptiveMaxPool1d(output_size=4)
            (avgpool): AdaptiveAvgPool1d(output_size=4)
          )
          (spatial1): BasicConv(
            (conv): Conv2d(4, 8, kernel_size=(7, 7), stride=(1, 1), padding=(3, 3), bias=False)
            (bn): BatchNorm2d(8, eps=1e-05, momentum=0.01, affine=True, track_running_stats=True)
          )
          (spatial2): BasicConv(
            (conv): Conv2d(8, 8, kernel_size=(7, 7), stride=(1, 1), padding=(3, 3), bias=False)
            (bn): BatchNorm2d(8, eps=1e-05, momentum=0.01, affine=True, track_running_stats=True)
          )
          (spatial3): BasicConv(
            (conv): Conv2d(16, 8, kernel_size=(7, 7), stride=(1, 1), padding=(3, 3), bias=False)
            (bn): BatchNorm2d(8, eps=1e-05, momentum=0.01, affine=True, track_running_stats=True)
          )
        )
      )
    )
    (4): RCABlock(
      (body): Sequential(
        (0): Conv2d(64, 64, kernel_size=(3, 3), stride=(1, 1), padding=(1, 1))
        (1): ReLU(inplace)
        (2): Conv2d(64, 64, kernel_size=(3, 3), stride=(1, 1), padding=(1, 1))
        (3): MultiPoolingSpatialAttn(
          (compress1): ChannelPool(
            (maxpool): AdaptiveMaxPool1d(output_size=1)
            (avgpool): AdaptiveAvgPool1d(output_size=1)
          )
          (compress2): ChannelPool(
            (maxpool): AdaptiveMaxPool1d(output_size=2)
            (avgpool): AdaptiveAvgPool1d(output_size=2)
          )
          (compress3): ChannelPool(
            (maxpool): AdaptiveMaxPool1d(output_size=4)
            (avgpool): AdaptiveAvgPool1d(output_size=4)
          )
          (spatial1): BasicConv(
            (conv): Conv2d(4, 8, kernel_size=(7, 7), stride=(1, 1), padding=(3, 3), bias=False)
            (bn): BatchNorm2d(8, eps=1e-05, momentum=0.01, affine=True, track_running_stats=True)
          )
          (spatial2): BasicConv(
            (conv): Conv2d(8, 8, kernel_size=(7, 7), stride=(1, 1), padding=(3, 3), bias=False)
            (bn): BatchNorm2d(8, eps=1e-05, momentum=0.01, affine=True, track_running_stats=True)
          )
          (spatial3): BasicConv(
            (conv): Conv2d(16, 8, kernel_size=(7, 7), stride=(1, 1), padding=(3, 3), bias=False)
            (bn): BatchNorm2d(8, eps=1e-05, momentum=0.01, affine=True, track_running_stats=True)
          )
        )
      )
    )
    (5): RCABlock(
      (body): Sequential(
        (0): Conv2d(64, 64, kernel_size=(3, 3), stride=(1, 1), padding=(1, 1))
        (1): ReLU(inplace)
        (2): Conv2d(64, 64, kernel_size=(3, 3), stride=(1, 1), padding=(1, 1))
        (3): MultiPoolingSpatialAttn(
          (compress1): ChannelPool(
            (maxpool): AdaptiveMaxPool1d(output_size=1)
            (avgpool): AdaptiveAvgPool1d(output_size=1)
          )
          (compress2): ChannelPool(
            (maxpool): AdaptiveMaxPool1d(output_size=2)
            (avgpool): AdaptiveAvgPool1d(output_size=2)
          )
          (compress3): ChannelPool(
            (maxpool): AdaptiveMaxPool1d(output_size=4)
            (avgpool): AdaptiveAvgPool1d(output_size=4)
          )
          (spatial1): BasicConv(
            (conv): Conv2d(4, 8, kernel_size=(7, 7), stride=(1, 1), padding=(3, 3), bias=False)
            (bn): BatchNorm2d(8, eps=1e-05, momentum=0.01, affine=True, track_running_stats=True)
          )
          (spatial2): BasicConv(
            (conv): Conv2d(8, 8, kernel_size=(7, 7), stride=(1, 1), padding=(3, 3), bias=False)
            (bn): BatchNorm2d(8, eps=1e-05, momentum=0.01, affine=True, track_running_stats=True)
          )
          (spatial3): BasicConv(
            (conv): Conv2d(16, 8, kernel_size=(7, 7), stride=(1, 1), padding=(3, 3), bias=False)
            (bn): BatchNorm2d(8, eps=1e-05, momentum=0.01, affine=True, track_running_stats=True)
          )
        )
      )
    )
    (6): RCABlock(
      (body): Sequential(
        (0): Conv2d(64, 64, kernel_size=(3, 3), stride=(1, 1), padding=(1, 1))
        (1): ReLU(inplace)
        (2): Conv2d(64, 64, kernel_size=(3, 3), stride=(1, 1), padding=(1, 1))
        (3): MultiPoolingSpatialAttn(
          (compress1): ChannelPool(
            (maxpool): AdaptiveMaxPool1d(output_size=1)
            (avgpool): AdaptiveAvgPool1d(output_size=1)
          )
          (compress2): ChannelPool(
            (maxpool): AdaptiveMaxPool1d(output_size=2)
            (avgpool): AdaptiveAvgPool1d(output_size=2)
          )
          (compress3): ChannelPool(
            (maxpool): AdaptiveMaxPool1d(output_size=4)
            (avgpool): AdaptiveAvgPool1d(output_size=4)
          )
          (spatial1): BasicConv(
            (conv): Conv2d(4, 8, kernel_size=(7, 7), stride=(1, 1), padding=(3, 3), bias=False)
            (bn): BatchNorm2d(8, eps=1e-05, momentum=0.01, affine=True, track_running_stats=True)
          )
          (spatial2): BasicConv(
            (conv): Conv2d(8, 8, kernel_size=(7, 7), stride=(1, 1), padding=(3, 3), bias=False)
            (bn): BatchNorm2d(8, eps=1e-05, momentum=0.01, affine=True, track_running_stats=True)
          )
          (spatial3): BasicConv(
            (conv): Conv2d(16, 8, kernel_size=(7, 7), stride=(1, 1), padding=(3, 3), bias=False)
            (bn): BatchNorm2d(8, eps=1e-05, momentum=0.01, affine=True, track_running_stats=True)
          )
        )
      )
    )
    (7): RCABlock(
      (body): Sequential(
        (0): Conv2d(64, 64, kernel_size=(3, 3), stride=(1, 1), padding=(1, 1))
        (1): ReLU(inplace)
        (2): Conv2d(64, 64, kernel_size=(3, 3), stride=(1, 1), padding=(1, 1))
        (3): MultiPoolingSpatialAttn(
          (compress1): ChannelPool(
            (maxpool): AdaptiveMaxPool1d(output_size=1)
            (avgpool): AdaptiveAvgPool1d(output_size=1)
          )
          (compress2): ChannelPool(
            (maxpool): AdaptiveMaxPool1d(output_size=2)
            (avgpool): AdaptiveAvgPool1d(output_size=2)
          )
          (compress3): ChannelPool(
            (maxpool): AdaptiveMaxPool1d(output_size=4)
            (avgpool): AdaptiveAvgPool1d(output_size=4)
          )
          (spatial1): BasicConv(
            (conv): Conv2d(4, 8, kernel_size=(7, 7), stride=(1, 1), padding=(3, 3), bias=False)
            (bn): BatchNorm2d(8, eps=1e-05, momentum=0.01, affine=True, track_running_stats=True)
          )
          (spatial2): BasicConv(
            (conv): Conv2d(8, 8, kernel_size=(7, 7), stride=(1, 1), padding=(3, 3), bias=False)
            (bn): BatchNorm2d(8, eps=1e-05, momentum=0.01, affine=True, track_running_stats=True)
          )
          (spatial3): BasicConv(
            (conv): Conv2d(16, 8, kernel_size=(7, 7), stride=(1, 1), padding=(3, 3), bias=False)
            (bn): BatchNorm2d(8, eps=1e-05, momentum=0.01, affine=True, track_running_stats=True)
          )
        )
      )
    )
    (8): RCABlock(
      (body): Sequential(
        (0): Conv2d(64, 64, kernel_size=(3, 3), stride=(1, 1), padding=(1, 1))
        (1): ReLU(inplace)
        (2): Conv2d(64, 64, kernel_size=(3, 3), stride=(1, 1), padding=(1, 1))
        (3): MultiPoolingSpatialAttn(
          (compress1): ChannelPool(
            (maxpool): AdaptiveMaxPool1d(output_size=1)
            (avgpool): AdaptiveAvgPool1d(output_size=1)
          )
          (compress2): ChannelPool(
            (maxpool): AdaptiveMaxPool1d(output_size=2)
            (avgpool): AdaptiveAvgPool1d(output_size=2)
          )
          (compress3): ChannelPool(
            (maxpool): AdaptiveMaxPool1d(output_size=4)
            (avgpool): AdaptiveAvgPool1d(output_size=4)
          )
          (spatial1): BasicConv(
            (conv): Conv2d(4, 8, kernel_size=(7, 7), stride=(1, 1), padding=(3, 3), bias=False)
            (bn): BatchNorm2d(8, eps=1e-05, momentum=0.01, affine=True, track_running_stats=True)
          )
          (spatial2): BasicConv(
            (conv): Conv2d(8, 8, kernel_size=(7, 7), stride=(1, 1), padding=(3, 3), bias=False)
            (bn): BatchNorm2d(8, eps=1e-05, momentum=0.01, affine=True, track_running_stats=True)
          )
          (spatial3): BasicConv(
            (conv): Conv2d(16, 8, kernel_size=(7, 7), stride=(1, 1), padding=(3, 3), bias=False)
            (bn): BatchNorm2d(8, eps=1e-05, momentum=0.01, affine=True, track_running_stats=True)
          )
        )
      )
    )
    (9): RCABlock(
      (body): Sequential(
        (0): Conv2d(64, 64, kernel_size=(3, 3), stride=(1, 1), padding=(1, 1))
        (1): ReLU(inplace)
        (2): Conv2d(64, 64, kernel_size=(3, 3), stride=(1, 1), padding=(1, 1))
        (3): MultiPoolingSpatialAttn(
          (compress1): ChannelPool(
            (maxpool): AdaptiveMaxPool1d(output_size=1)
            (avgpool): AdaptiveAvgPool1d(output_size=1)
          )
          (compress2): ChannelPool(
            (maxpool): AdaptiveMaxPool1d(output_size=2)
            (avgpool): AdaptiveAvgPool1d(output_size=2)
          )
          (compress3): ChannelPool(
            (maxpool): AdaptiveMaxPool1d(output_size=4)
            (avgpool): AdaptiveAvgPool1d(output_size=4)
          )
          (spatial1): BasicConv(
            (conv): Conv2d(4, 8, kernel_size=(7, 7), stride=(1, 1), padding=(3, 3), bias=False)
            (bn): BatchNorm2d(8, eps=1e-05, momentum=0.01, affine=True, track_running_stats=True)
          )
          (spatial2): BasicConv(
            (conv): Conv2d(8, 8, kernel_size=(7, 7), stride=(1, 1), padding=(3, 3), bias=False)
            (bn): BatchNorm2d(8, eps=1e-05, momentum=0.01, affine=True, track_running_stats=True)
          )
          (spatial3): BasicConv(
            (conv): Conv2d(16, 8, kernel_size=(7, 7), stride=(1, 1), padding=(3, 3), bias=False)
            (bn): BatchNorm2d(8, eps=1e-05, momentum=0.01, affine=True, track_running_stats=True)
          )
        )
      )
    )
    (10): RCABlock(
      (body): Sequential(
        (0): Conv2d(64, 64, kernel_size=(3, 3), stride=(1, 1), padding=(1, 1))
        (1): ReLU(inplace)
        (2): Conv2d(64, 64, kernel_size=(3, 3), stride=(1, 1), padding=(1, 1))
        (3): MultiPoolingSpatialAttn(
          (compress1): ChannelPool(
            (maxpool): AdaptiveMaxPool1d(output_size=1)
            (avgpool): AdaptiveAvgPool1d(output_size=1)
          )
          (compress2): ChannelPool(
            (maxpool): AdaptiveMaxPool1d(output_size=2)
            (avgpool): AdaptiveAvgPool1d(output_size=2)
          )
          (compress3): ChannelPool(
            (maxpool): AdaptiveMaxPool1d(output_size=4)
            (avgpool): AdaptiveAvgPool1d(output_size=4)
          )
          (spatial1): BasicConv(
            (conv): Conv2d(4, 8, kernel_size=(7, 7), stride=(1, 1), padding=(3, 3), bias=False)
            (bn): BatchNorm2d(8, eps=1e-05, momentum=0.01, affine=True, track_running_stats=True)
          )
          (spatial2): BasicConv(
            (conv): Conv2d(8, 8, kernel_size=(7, 7), stride=(1, 1), padding=(3, 3), bias=False)
            (bn): BatchNorm2d(8, eps=1e-05, momentum=0.01, affine=True, track_running_stats=True)
          )
          (spatial3): BasicConv(
            (conv): Conv2d(16, 8, kernel_size=(7, 7), stride=(1, 1), padding=(3, 3), bias=False)
            (bn): BatchNorm2d(8, eps=1e-05, momentum=0.01, affine=True, track_running_stats=True)
          )
        )
      )
    )
    (11): RCABlock(
      (body): Sequential(
        (0): Conv2d(64, 64, kernel_size=(3, 3), stride=(1, 1), padding=(1, 1))
        (1): ReLU(inplace)
        (2): Conv2d(64, 64, kernel_size=(3, 3), stride=(1, 1), padding=(1, 1))
        (3): MultiPoolingSpatialAttn(
          (compress1): ChannelPool(
            (maxpool): AdaptiveMaxPool1d(output_size=1)
            (avgpool): AdaptiveAvgPool1d(output_size=1)
          )
          (compress2): ChannelPool(
            (maxpool): AdaptiveMaxPool1d(output_size=2)
            (avgpool): AdaptiveAvgPool1d(output_size=2)
          )
          (compress3): ChannelPool(
            (maxpool): AdaptiveMaxPool1d(output_size=4)
            (avgpool): AdaptiveAvgPool1d(output_size=4)
          )
          (spatial1): BasicConv(
            (conv): Conv2d(4, 8, kernel_size=(7, 7), stride=(1, 1), padding=(3, 3), bias=False)
            (bn): BatchNorm2d(8, eps=1e-05, momentum=0.01, affine=True, track_running_stats=True)
          )
          (spatial2): BasicConv(
            (conv): Conv2d(8, 8, kernel_size=(7, 7), stride=(1, 1), padding=(3, 3), bias=False)
            (bn): BatchNorm2d(8, eps=1e-05, momentum=0.01, affine=True, track_running_stats=True)
          )
          (spatial3): BasicConv(
            (conv): Conv2d(16, 8, kernel_size=(7, 7), stride=(1, 1), padding=(3, 3), bias=False)
            (bn): BatchNorm2d(8, eps=1e-05, momentum=0.01, affine=True, track_running_stats=True)
          )
        )
      )
    )
    (12): RCABlock(
      (body): Sequential(
        (0): Conv2d(64, 64, kernel_size=(3, 3), stride=(1, 1), padding=(1, 1))
        (1): ReLU(inplace)
        (2): Conv2d(64, 64, kernel_size=(3, 3), stride=(1, 1), padding=(1, 1))
        (3): MultiPoolingSpatialAttn(
          (compress1): ChannelPool(
            (maxpool): AdaptiveMaxPool1d(output_size=1)
            (avgpool): AdaptiveAvgPool1d(output_size=1)
          )
          (compress2): ChannelPool(
            (maxpool): AdaptiveMaxPool1d(output_size=2)
            (avgpool): AdaptiveAvgPool1d(output_size=2)
          )
          (compress3): ChannelPool(
            (maxpool): AdaptiveMaxPool1d(output_size=4)
            (avgpool): AdaptiveAvgPool1d(output_size=4)
          )
          (spatial1): BasicConv(
            (conv): Conv2d(4, 8, kernel_size=(7, 7), stride=(1, 1), padding=(3, 3), bias=False)
            (bn): BatchNorm2d(8, eps=1e-05, momentum=0.01, affine=True, track_running_stats=True)
          )
          (spatial2): BasicConv(
            (conv): Conv2d(8, 8, kernel_size=(7, 7), stride=(1, 1), padding=(3, 3), bias=False)
            (bn): BatchNorm2d(8, eps=1e-05, momentum=0.01, affine=True, track_running_stats=True)
          )
          (spatial3): BasicConv(
            (conv): Conv2d(16, 8, kernel_size=(7, 7), stride=(1, 1), padding=(3, 3), bias=False)
            (bn): BatchNorm2d(8, eps=1e-05, momentum=0.01, affine=True, track_running_stats=True)
          )
        )
      )
    )
    (13): RCABlock(
      (body): Sequential(
        (0): Conv2d(64, 64, kernel_size=(3, 3), stride=(1, 1), padding=(1, 1))
        (1): ReLU(inplace)
        (2): Conv2d(64, 64, kernel_size=(3, 3), stride=(1, 1), padding=(1, 1))
        (3): MultiPoolingSpatialAttn(
          (compress1): ChannelPool(
            (maxpool): AdaptiveMaxPool1d(output_size=1)
            (avgpool): AdaptiveAvgPool1d(output_size=1)
          )
          (compress2): ChannelPool(
            (maxpool): AdaptiveMaxPool1d(output_size=2)
            (avgpool): AdaptiveAvgPool1d(output_size=2)
          )
          (compress3): ChannelPool(
            (maxpool): AdaptiveMaxPool1d(output_size=4)
            (avgpool): AdaptiveAvgPool1d(output_size=4)
          )
          (spatial1): BasicConv(
            (conv): Conv2d(4, 8, kernel_size=(7, 7), stride=(1, 1), padding=(3, 3), bias=False)
            (bn): BatchNorm2d(8, eps=1e-05, momentum=0.01, affine=True, track_running_stats=True)
          )
          (spatial2): BasicConv(
            (conv): Conv2d(8, 8, kernel_size=(7, 7), stride=(1, 1), padding=(3, 3), bias=False)
            (bn): BatchNorm2d(8, eps=1e-05, momentum=0.01, affine=True, track_running_stats=True)
          )
          (spatial3): BasicConv(
            (conv): Conv2d(16, 8, kernel_size=(7, 7), stride=(1, 1), padding=(3, 3), bias=False)
            (bn): BatchNorm2d(8, eps=1e-05, momentum=0.01, affine=True, track_running_stats=True)
          )
        )
      )
    )
    (14): RCABlock(
      (body): Sequential(
        (0): Conv2d(64, 64, kernel_size=(3, 3), stride=(1, 1), padding=(1, 1))
        (1): ReLU(inplace)
        (2): Conv2d(64, 64, kernel_size=(3, 3), stride=(1, 1), padding=(1, 1))
        (3): MultiPoolingSpatialAttn(
          (compress1): ChannelPool(
            (maxpool): AdaptiveMaxPool1d(output_size=1)
            (avgpool): AdaptiveAvgPool1d(output_size=1)
          )
          (compress2): ChannelPool(
            (maxpool): AdaptiveMaxPool1d(output_size=2)
            (avgpool): AdaptiveAvgPool1d(output_size=2)
          )
          (compress3): ChannelPool(
            (maxpool): AdaptiveMaxPool1d(output_size=4)
            (avgpool): AdaptiveAvgPool1d(output_size=4)
          )
          (spatial1): BasicConv(
            (conv): Conv2d(4, 8, kernel_size=(7, 7), stride=(1, 1), padding=(3, 3), bias=False)
            (bn): BatchNorm2d(8, eps=1e-05, momentum=0.01, affine=True, track_running_stats=True)
          )
          (spatial2): BasicConv(
            (conv): Conv2d(8, 8, kernel_size=(7, 7), stride=(1, 1), padding=(3, 3), bias=False)
            (bn): BatchNorm2d(8, eps=1e-05, momentum=0.01, affine=True, track_running_stats=True)
          )
          (spatial3): BasicConv(
            (conv): Conv2d(16, 8, kernel_size=(7, 7), stride=(1, 1), padding=(3, 3), bias=False)
            (bn): BatchNorm2d(8, eps=1e-05, momentum=0.01, affine=True, track_running_stats=True)
          )
        )
      )
    )
    (15): RCABlock(
      (body): Sequential(
        (0): Conv2d(64, 64, kernel_size=(3, 3), stride=(1, 1), padding=(1, 1))
        (1): ReLU(inplace)
        (2): Conv2d(64, 64, kernel_size=(3, 3), stride=(1, 1), padding=(1, 1))
        (3): MultiPoolingSpatialAttn(
          (compress1): ChannelPool(
            (maxpool): AdaptiveMaxPool1d(output_size=1)
            (avgpool): AdaptiveAvgPool1d(output_size=1)
          )
          (compress2): ChannelPool(
            (maxpool): AdaptiveMaxPool1d(output_size=2)
            (avgpool): AdaptiveAvgPool1d(output_size=2)
          )
          (compress3): ChannelPool(
            (maxpool): AdaptiveMaxPool1d(output_size=4)
            (avgpool): AdaptiveAvgPool1d(output_size=4)
          )
          (spatial1): BasicConv(
            (conv): Conv2d(4, 8, kernel_size=(7, 7), stride=(1, 1), padding=(3, 3), bias=False)
            (bn): BatchNorm2d(8, eps=1e-05, momentum=0.01, affine=True, track_running_stats=True)
          )
          (spatial2): BasicConv(
            (conv): Conv2d(8, 8, kernel_size=(7, 7), stride=(1, 1), padding=(3, 3), bias=False)
            (bn): BatchNorm2d(8, eps=1e-05, momentum=0.01, affine=True, track_running_stats=True)
          )
          (spatial3): BasicConv(
            (conv): Conv2d(16, 8, kernel_size=(7, 7), stride=(1, 1), padding=(3, 3), bias=False)
            (bn): BatchNorm2d(8, eps=1e-05, momentum=0.01, affine=True, track_running_stats=True)
          )
        )
      )
    )
    (16): Conv2d(64, 64, kernel_size=(3, 3), stride=(1, 1), padding=(1, 1))
  )
  (tail): Sequential(
    (0): Upsampler(
      (0): Conv2d(64, 256, kernel_size=(3, 3), stride=(1, 1), padding=(1, 1))
      (1): PixelShuffle(upscale_factor=2)
      (2): ReLU(inplace)
      (3): Conv2d(64, 256, kernel_size=(3, 3), stride=(1, 1), padding=(1, 1))
      (4): PixelShuffle(upscale_factor=2)
      (5): ReLU(inplace)
    )
    (1): Conv2d(64, 3, kernel_size=(3, 3), stride=(1, 1), padding=(1, 1))
  )
)
[Epoch 1]	Learning rate: 1.00e-4
[1600/15600]	[L1: 32.1204]	[L1: 42.4911]	52.1+41.7s
[3200/15600]	[L1: 28.5189]	[L1: 38.1543]	51.5+35.2s
[4800/15600]	[L1: 26.6833]	[L1: 36.4808]	51.7+16.8s
[6400/15600]	[L1: 25.8697]	[L1: 35.6335]	52.2+4.9s
[8000/15600]	[L1: 25.2232]	[L1: 35.1988]	51.8+12.2s
[9600/15600]	[L1: 24.7887]	[L1: 34.8474]	52.3+3.8s
…
