edsr 8X model with channel attention
EDSR(
  (sub_mean): MeanShift(3, 3, kernel_size=(1, 1), stride=(1, 1))
  (add_mean): MeanShift(3, 3, kernel_size=(1, 1), stride=(1, 1))
  (head): Sequential(
    (0): Conv2d(3, 64, kernel_size=(3, 3), stride=(1, 1), padding=(1, 1))
  )
  (body): Sequential(
    (0): RCABlock(
      (body): Sequential(
        (0): Conv2d(64, 64, kernel_size=(3, 3), stride=(1, 1), padding=(1, 1))
        (1): ReLU(inplace)
        (2): Conv2d(64, 64, kernel_size=(3, 3), stride=(1, 1), padding=(1, 1))
        (3): CALayer(
          (avg_pool): AdaptiveAvgPool2d(output_size=1)
          (conv_du): Sequential(
            (0): Conv2d(64, 4, kernel_size=(1, 1), stride=(1, 1))
            (1): ReLU(inplace)
            (2): Conv2d(4, 64, kernel_size=(1, 1), stride=(1, 1))
            (3): Sigmoid()
          )
        )
      )
    )
    (1): RCABlock(
      (body): Sequential(
        (0): Conv2d(64, 64, kernel_size=(3, 3), stride=(1, 1), padding=(1, 1))
        (1): ReLU(inplace)
        (2): Conv2d(64, 64, kernel_size=(3, 3), stride=(1, 1), padding=(1, 1))
        (3): CALayer(
          (avg_pool): AdaptiveAvgPool2d(output_size=1)
          (conv_du): Sequential(
            (0): Conv2d(64, 4, kernel_size=(1, 1), stride=(1, 1))
            (1): ReLU(inplace)
            (2): Conv2d(4, 64, kernel_size=(1, 1), stride=(1, 1))
            (3): Sigmoid()
          )
        )
      )
    )
    (2): RCABlock(
      (body): Sequential(
        (0): Conv2d(64, 64, kernel_size=(3, 3), stride=(1, 1), padding=(1, 1))
        (1): ReLU(inplace)
        (2): Conv2d(64, 64, kernel_size=(3, 3), stride=(1, 1), padding=(1, 1))
        (3): CALayer(
          (avg_pool): AdaptiveAvgPool2d(output_size=1)
          (conv_du): Sequential(
            (0): Conv2d(64, 4, kernel_size=(1, 1), stride=(1, 1))
            (1): ReLU(inplace)
            (2): Conv2d(4, 64, kernel_size=(1, 1), stride=(1, 1))
            (3): Sigmoid()
          )
        )
      )
    )
    (3): RCABlock(
      (body): Sequential(
        (0): Conv2d(64, 64, kernel_size=(3, 3), stride=(1, 1), padding=(1, 1))
        (1): ReLU(inplace)
        (2): Conv2d(64, 64, kernel_size=(3, 3), stride=(1, 1), padding=(1, 1))
        (3): CALayer(
          (avg_pool): AdaptiveAvgPool2d(output_size=1)
          (conv_du): Sequential(
            (0): Conv2d(64, 4, kernel_size=(1, 1), stride=(1, 1))
            (1): ReLU(inplace)
            (2): Conv2d(4, 64, kernel_size=(1, 1), stride=(1, 1))
            (3): Sigmoid()
          )
        )
      )
    )
    (4): RCABlock(
      (body): Sequential(
        (0): Conv2d(64, 64, kernel_size=(3, 3), stride=(1, 1), padding=(1, 1))
        (1): ReLU(inplace)
        (2): Conv2d(64, 64, kernel_size=(3, 3), stride=(1, 1), padding=(1, 1))
        (3): CALayer(
          (avg_pool): AdaptiveAvgPool2d(output_size=1)
          (conv_du): Sequential(
            (0): Conv2d(64, 4, kernel_size=(1, 1), stride=(1, 1))
            (1): ReLU(inplace)
            (2): Conv2d(4, 64, kernel_size=(1, 1), stride=(1, 1))
            (3): Sigmoid()
          )
        )
      )
    )
    (5): RCABlock(
      (body): Sequential(
        (0): Conv2d(64, 64, kernel_size=(3, 3), stride=(1, 1), padding=(1, 1))
        (1): ReLU(inplace)
        (2): Conv2d(64, 64, kernel_size=(3, 3), stride=(1, 1), padding=(1, 1))
        (3): CALayer(
          (avg_pool): AdaptiveAvgPool2d(output_size=1)
          (conv_du): Sequential(
            (0): Conv2d(64, 4, kernel_size=(1, 1), stride=(1, 1))
            (1): ReLU(inplace)
            (2): Conv2d(4, 64, kernel_size=(1, 1), stride=(1, 1))
            (3): Sigmoid()
          )
        )
      )
    )
    (6): RCABlock(
      (body): Sequential(
        (0): Conv2d(64, 64, kernel_size=(3, 3), stride=(1, 1), padding=(1, 1))
        (1): ReLU(inplace)
        (2): Conv2d(64, 64, kernel_size=(3, 3), stride=(1, 1), padding=(1, 1))
        (3): CALayer(
          (avg_pool): AdaptiveAvgPool2d(output_size=1)
          (conv_du): Sequential(
            (0): Conv2d(64, 4, kernel_size=(1, 1), stride=(1, 1))
            (1): ReLU(inplace)
            (2): Conv2d(4, 64, kernel_size=(1, 1), stride=(1, 1))
            (3): Sigmoid()
          )
        )
      )
    )
    (7): RCABlock(
      (body): Sequential(
        (0): Conv2d(64, 64, kernel_size=(3, 3), stride=(1, 1), padding=(1, 1))
        (1): ReLU(inplace)
        (2): Conv2d(64, 64, kernel_size=(3, 3), stride=(1, 1), padding=(1, 1))
        (3): CALayer(
          (avg_pool): AdaptiveAvgPool2d(output_size=1)
          (conv_du): Sequential(
            (0): Conv2d(64, 4, kernel_size=(1, 1), stride=(1, 1))
            (1): ReLU(inplace)
            (2): Conv2d(4, 64, kernel_size=(1, 1), stride=(1, 1))
            (3): Sigmoid()
          )
        )
      )
    )
    (8): RCABlock(
      (body): Sequential(
        (0): Conv2d(64, 64, kernel_size=(3, 3), stride=(1, 1), padding=(1, 1))
        (1): ReLU(inplace)
        (2): Conv2d(64, 64, kernel_size=(3, 3), stride=(1, 1), padding=(1, 1))
        (3): CALayer(
          (avg_pool): AdaptiveAvgPool2d(output_size=1)
          (conv_du): Sequential(
            (0): Conv2d(64, 4, kernel_size=(1, 1), stride=(1, 1))
            (1): ReLU(inplace)
            (2): Conv2d(4, 64, kernel_size=(1, 1), stride=(1, 1))
            (3): Sigmoid()
          )
        )
      )
    )
    (9): RCABlock(
      (body): Sequential(
        (0): Conv2d(64, 64, kernel_size=(3, 3), stride=(1, 1), padding=(1, 1))
        (1): ReLU(inplace)
        (2): Conv2d(64, 64, kernel_size=(3, 3), stride=(1, 1), padding=(1, 1))
        (3): CALayer(
          (avg_pool): AdaptiveAvgPool2d(output_size=1)
          (conv_du): Sequential(
            (0): Conv2d(64, 4, kernel_size=(1, 1), stride=(1, 1))
            (1): ReLU(inplace)
            (2): Conv2d(4, 64, kernel_size=(1, 1), stride=(1, 1))
            (3): Sigmoid()
          )
        )
      )
    )
    (10): RCABlock(
      (body): Sequential(
        (0): Conv2d(64, 64, kernel_size=(3, 3), stride=(1, 1), padding=(1, 1))
        (1): ReLU(inplace)
        (2): Conv2d(64, 64, kernel_size=(3, 3), stride=(1, 1), padding=(1, 1))
        (3): CALayer(
          (avg_pool): AdaptiveAvgPool2d(output_size=1)
          (conv_du): Sequential(
            (0): Conv2d(64, 4, kernel_size=(1, 1), stride=(1, 1))
            (1): ReLU(inplace)
            (2): Conv2d(4, 64, kernel_size=(1, 1), stride=(1, 1))
            (3): Sigmoid()
          )
        )
      )
    )
    (11): RCABlock(
      (body): Sequential(
        (0): Conv2d(64, 64, kernel_size=(3, 3), stride=(1, 1), padding=(1, 1))
        (1): ReLU(inplace)
        (2): Conv2d(64, 64, kernel_size=(3, 3), stride=(1, 1), padding=(1, 1))
        (3): CALayer(
          (avg_pool): AdaptiveAvgPool2d(output_size=1)
          (conv_du): Sequential(
            (0): Conv2d(64, 4, kernel_size=(1, 1), stride=(1, 1))
            (1): ReLU(inplace)
            (2): Conv2d(4, 64, kernel_size=(1, 1), stride=(1, 1))
            (3): Sigmoid()
          )
        )
      )
    )
    (12): RCABlock(
      (body): Sequential(
        (0): Conv2d(64, 64, kernel_size=(3, 3), stride=(1, 1), padding=(1, 1))
        (1): ReLU(inplace)
        (2): Conv2d(64, 64, kernel_size=(3, 3), stride=(1, 1), padding=(1, 1))
        (3): CALayer(
          (avg_pool): AdaptiveAvgPool2d(output_size=1)
          (conv_du): Sequential(
            (0): Conv2d(64, 4, kernel_size=(1, 1), stride=(1, 1))
            (1): ReLU(inplace)
            (2): Conv2d(4, 64, kernel_size=(1, 1), stride=(1, 1))
            (3): Sigmoid()
          )
        )
      )
    )
    (13): RCABlock(
      (body): Sequential(
        (0): Conv2d(64, 64, kernel_size=(3, 3), stride=(1, 1), padding=(1, 1))
        (1): ReLU(inplace)
        (2): Conv2d(64, 64, kernel_size=(3, 3), stride=(1, 1), padding=(1, 1))
        (3): CALayer(
          (avg_pool): AdaptiveAvgPool2d(output_size=1)
          (conv_du): Sequential(
            (0): Conv2d(64, 4, kernel_size=(1, 1), stride=(1, 1))
            (1): ReLU(inplace)
            (2): Conv2d(4, 64, kernel_size=(1, 1), stride=(1, 1))
            (3): Sigmoid()
          )
        )
      )
    )
    (14): RCABlock(
      (body): Sequential(
        (0): Conv2d(64, 64, kernel_size=(3, 3), stride=(1, 1), padding=(1, 1))
        (1): ReLU(inplace)
        (2): Conv2d(64, 64, kernel_size=(3, 3), stride=(1, 1), padding=(1, 1))
        (3): CALayer(
          (avg_pool): AdaptiveAvgPool2d(output_size=1)
          (conv_du): Sequential(
            (0): Conv2d(64, 4, kernel_size=(1, 1), stride=(1, 1))
            (1): ReLU(inplace)
            (2): Conv2d(4, 64, kernel_size=(1, 1), stride=(1, 1))
            (3): Sigmoid()
          )
        )
      )
    )
    (15): RCABlock(
      (body): Sequential(
        (0): Conv2d(64, 64, kernel_size=(3, 3), stride=(1, 1), padding=(1, 1))
        (1): ReLU(inplace)
        (2): Conv2d(64, 64, kernel_size=(3, 3), stride=(1, 1), padding=(1, 1))
        (3): CALayer(
          (avg_pool): AdaptiveAvgPool2d(output_size=1)
          (conv_du): Sequential(
            (0): Conv2d(64, 4, kernel_size=(1, 1), stride=(1, 1))
            (1): ReLU(inplace)
            (2): Conv2d(4, 64, kernel_size=(1, 1), stride=(1, 1))
            (3): Sigmoid()
          )
        )
      )
    )
    (16): Conv2d(64, 64, kernel_size=(3, 3), stride=(1, 1), padding=(1, 1))
  )
  (tail): Sequential(
    (0): Upsampler(
      (0): Conv2d(64, 256, kernel_size=(3, 3), stride=(1, 1), padding=(1, 1))
      (1): PixelShuffle(upscale_factor=2)
      (2): Conv2d(64, 256, kernel_size=(3, 3), stride=(1, 1), padding=(1, 1))
      (3): PixelShuffle(upscale_factor=2)
      (4): Conv2d(64, 256, kernel_size=(3, 3), stride=(1, 1), padding=(1, 1))
      (5): PixelShuffle(upscale_factor=2)
    )
    (1): Conv2d(64, 3, kernel_size=(3, 3), stride=(1, 1), padding=(1, 1))
  )
)
[Epoch 1]	Learning rate: 1.00e-4
[1600/15906]	[L1: 29.8513]	9.2+4.8s
[3200/15906]	[L1: 27.5835]	7.7+6.6s
[4800/15906]	[L1: 26.5831]	7.4+5.9s
[6400/15906]	[L1: 26.0204]	7.3+6.1s
[8000/15906]	[L1: 25.4297]	7.7+5.9s
[9600/15906]	[L1: 25.0696]	7.7+5.8s
[11200/15906]	[L1: 24.9146]	7.8+5.0s
[12800/15906]	[L1: 24.7712]	7.8+5.9s
[14400/15906]	[L1: 24.5353]	7.8+5.5s
…
