edsr with multi-pooling spatial attention
EDSR(
  (sub_mean): MeanShift(3, 3, kernel_size=(1, 1), stride=(1, 1))
  (add_mean): MeanShift(3, 3, kernel_size=(1, 1), stride=(1, 1))
  (head): Sequential(
    (0): Conv2d(3, 64, kernel_size=(3, 3), stride=(1, 1), padding=(1, 1))
  )
  (body): Sequential(
    (0): RCABlock(
      (body): Sequential(
        (0): Conv2d(64, 64, kernel_size=(3, 3), stride=(1, 1), padding=(1, 1))
        (1): ReLU(inplace)
        (2): Conv2d(64, 64, kernel_size=(3, 3), stride=(1, 1), padding=(1, 1))
        (3): MultiPoolingSpatialAttn(
          (compress1): ChannelPool(
            (maxpool): AdaptiveMaxPool1d(output_size=1)
            (avgpool): AdaptiveAvgPool1d(output_size=1)
          )
          (compress2): ChannelPool(
            (maxpool): AdaptiveMaxPool1d(output_size=2)
            (avgpool): AdaptiveAvgPool1d(output_size=2)
          )
          (compress3): ChannelPool(
            (maxpool): AdaptiveMaxPool1d(output_size=4)
            (avgpool): AdaptiveAvgPool1d(output_size=4)
          )
          (spatial1): BasicConv(
            (conv): Conv2d(4, 8, kernel_size=(7, 7), stride=(1, 1), padding=(3, 3), bias=False)
            (bn): BatchNorm2d(8, eps=1e-05, momentum=0.01, affine=True, track_running_stats=True)
          )
          (spatial2): BasicConv(
            (conv): Conv2d(8, 8, kernel_size=(7, 7), stride=(1, 1), padding=(3, 3), bias=False)
            (bn): BatchNorm2d(8, eps=1e-05, momentum=0.01, affine=True, track_running_stats=True)
          )
          (spatial3): BasicConv(
            (conv): Conv2d(16, 8, kernel_size=(7, 7), stride=(1, 1), padding=(3, 3), bias=False)
            (bn): BatchNorm2d(8, eps=1e-05, momentum=0.01, affine=True, track_running_stats=True)
          )
        )
      )
    )
    (1): RCABlock(
      (body): Sequential(
        (0): Conv2d(64, 64, kernel_size=(3, 3), stride=(1, 1), padding=(1, 1))
        (1): ReLU(inplace)
        (2): Conv2d(64, 64, kernel_size=(3, 3), stride=(1, 1), padding=(1, 1))
        (3): MultiPoolingSpatialAttn(
          (compress1): ChannelPool(
            (maxpool): AdaptiveMaxPool1d(output_size=1)
            (avgpool): AdaptiveAvgPool1d(output_size=1)
          )
          (compress2): ChannelPool(
            (maxpool): AdaptiveMaxPool1d(output_size=2)
            (avgpool): AdaptiveAvgPool1d(output_size=2)
          )
          (compress3): ChannelPool(
            (maxpool): AdaptiveMaxPool1d(output_size=4)
            (avgpool): AdaptiveAvgPool1d(output_size=4)
          )
          (spatial1): BasicConv(
            (conv): Conv2d(4, 8, kernel_size=(7, 7), stride=(1, 1), padding=(3, 3), bias=False)
            (bn): BatchNorm2d(8, eps=1e-05, momentum=0.01, affine=True, track_running_stats=True)
          )
          (spatial2): BasicConv(
            (conv): Conv2d(8, 8, kernel_size=(7, 7), stride=(1, 1), padding=(3, 3), bias=False)
            (bn): BatchNorm2d(8, eps=1e-05, momentum=0.01, affine=True, track_running_stats=True)
          )
          (spatial3): BasicConv(
            (conv): Conv2d(16, 8, kernel_size=(7, 7), stride=(1, 1), padding=(3, 3), bias=False)
            (bn): BatchNorm2d(8, eps=1e-05, momentum=0.01, affine=True, track_running_stats=True)
          )
        )
      )
    )
    (2): RCABlock(
      (body): Sequential(
        (0): Conv2d(64, 64, kernel_size=(3, 3), stride=(1, 1), padding=(1, 1))
        (1): ReLU(inplace)
        (2): Conv2d(64, 64, kernel_size=(3, 3), stride=(1, 1), padding=(1, 1))
        (3): MultiPoolingSpatialAttn(
          (compress1): ChannelPool(
            (maxpool): AdaptiveMaxPool1d(output_size=1)
            (avgpool): AdaptiveAvgPool1d(output_size=1)
          )
          (compress2): ChannelPool(
            (maxpool): AdaptiveMaxPool1d(output_size=2)
            (avgpool): AdaptiveAvgPool1d(output_size=2)
          )
          (compress3): ChannelPool(
            (maxpool): AdaptiveMaxPool1d(output_size=4)
            (avgpool): AdaptiveAvgPool1d(output_size=4)
          )
          (spatial1): BasicConv(
            (conv): Conv2d(4, 8, kernel_size=(7, 7), stride=(1, 1), padding=(3, 3), bias=False)
            (bn): BatchNorm2d(8, eps=1e-05, momentum=0.01, affine=True, track_running_stats=True)
          )
          (spatial2): BasicConv(
            (conv): Conv2d(8, 8, kernel_size=(7, 7), stride=(1, 1), padding=(3, 3), bias=False)
            (bn): BatchNorm2d(8, eps=1e-05, momentum=0.01, affine=True, track_running_stats=True)
          )
          (spatial3): BasicConv(
            (conv): Conv2d(16, 8, kernel_size=(7, 7), stride=(1, 1), padding=(3, 3), bias=False)
            (bn): BatchNorm2d(8, eps=1e-05, momentum=0.01, affine=True, track_running_stats=True)
          )
        )
      )
    )
    (3): RCABlock(
      (body): Sequential(
        (0): Conv2d(64, 64, kernel_size=(3, 3), stride=(1, 1), padding=(1, 1))
        (1): ReLU(inplace)
        (2): Conv2d(64, 64, kernel_size=(3, 3), stride=(1, 1), padding=(1, 1))
        (3): MultiPoolingSpatialAttn(
          (compress1): ChannelPool(
            (maxpool): AdaptiveMaxPool1d(output_size=1)
            (avgpool): AdaptiveAvgPool1d(output_size=1)
          )
          (compress2): ChannelPool(
            (maxpool): AdaptiveMaxPool1d(output_size=2)
            (avgpool): AdaptiveAvgPool1d(output_size=2)
          )
          (compress3): ChannelPool(
            (maxpool): AdaptiveMaxPool1d(output_size=4)
            (avgpool): AdaptiveAvgPool1d(output_size=4)
          )
          (spatial1): BasicConv(
            (conv): Conv2d(4, 8, kernel_size=(7, 7), stride=(1, 1), padding=(3, 3), bias=False)
            (bn): BatchNorm2d(8, eps=1e-05, momentum=0.01, affine=True, track_running_stats=True)
          )
          (spatial2): BasicConv(
            (conv): Conv2d(8, 8, kernel_size=(7, 7), stride=(1, 1), padding=(3, 3), bias=False)
            (bn): BatchNorm2d(8, eps=1e-05, momentum=0.01, affine=True, track_running_stats=True)
          )
          (spatial3): BasicConv(
            (conv): Conv2d(16, 8, kernel_size=(7, 7), stride=(1, 1), padding=(3, 3), bias=False)
            (bn): BatchNorm2d(8, eps=1e-05, momentum=0.01, affine=True, track_running_stats=True)
          )
        )
      )
    )
    (4): RCABlock(
      (body): Sequential(
        (0): Conv2d(64, 64, kernel_size=(3, 3), stride=(1, 1), padding=(1, 1))
        (1): ReLU(inplace)
        (2): Conv2d(64, 64, kernel_size=(3, 3), stride=(1, 1), padding=(1, 1))
        (3): MultiPoolingSpatialAttn(
          (compress1): ChannelPool(
            (maxpool): AdaptiveMaxPool1d(output_size=1)
            (avgpool): AdaptiveAvgPool1d(output_size=1)
          )
          (compress2): ChannelPool(
            (maxpool): AdaptiveMaxPool1d(output_size=2)
            (avgpool): AdaptiveAvgPool1d(output_size=2)
          )
          (compress3): ChannelPool(
            (maxpool): AdaptiveMaxPool1d(output_size=4)
            (avgpool): AdaptiveAvgPool1d(output_size=4)
          )
          (spatial1): BasicConv(
            (conv): Conv2d(4, 8, kernel_size=(7, 7), stride=(1, 1), padding=(3, 3), bias=False)
            (bn): BatchNorm2d(8, eps=1e-05, momentum=0.01, affine=True, track_running_stats=True)
          )
          (spatial2): BasicConv(
            (conv): Conv2d(8, 8, kernel_size=(7, 7), stride=(1, 1), padding=(3, 3), bias=False)
            (bn): BatchNorm2d(8, eps=1e-05, momentum=0.01, affine=True, track_running_stats=True)
          )
          (spatial3): BasicConv(
            (conv): Conv2d(16, 8, kernel_size=(7, 7), stride=(1, 1), padding=(3, 3), bias=False)
            (bn): BatchNorm2d(8, eps=1e-05, momentum=0.01, affine=True, track_running_stats=True)
          )
        )
      )
    )
    (5): RCABlock(
      (body): Sequential(
        (0): Conv2d(64, 64, kernel_size=(3, 3), stride=(1, 1), padding=(1, 1))
        (1): ReLU(inplace)
        (2): Conv2d(64, 64, kernel_size=(3, 3), stride=(1, 1), padding=(1, 1))
        (3): MultiPoolingSpatialAttn(
          (compress1): ChannelPool(
            (maxpool): AdaptiveMaxPool1d(output_size=1)
            (avgpool): AdaptiveAvgPool1d(output_size=1)
          )
          (compress2): ChannelPool(
            (maxpool): AdaptiveMaxPool1d(output_size=2)
            (avgpool): AdaptiveAvgPool1d(output_size=2)
          )
          (compress3): ChannelPool(
            (maxpool): AdaptiveMaxPool1d(output_size=4)
            (avgpool): AdaptiveAvgPool1d(output_size=4)
          )
          (spatial1): BasicConv(
            (conv): Conv2d(4, 8, kernel_size=(7, 7), stride=(1, 1), padding=(3, 3), bias=False)
            (bn): BatchNorm2d(8, eps=1e-05, momentum=0.01, affine=True, track_running_stats=True)
          )
          (spatial2): BasicConv(
            (conv): Conv2d(8, 8, kernel_size=(7, 7), stride=(1, 1), padding=(3, 3), bias=False)
            (bn): BatchNorm2d(8, eps=1e-05, momentum=0.01, affine=True, track_running_stats=True)
          )
          (spatial3): BasicConv(
            (conv): Conv2d(16, 8, kernel_size=(7, 7), stride=(1, 1), padding=(3, 3), bias=False)
            (bn): BatchNorm2d(8, eps=1e-05, momentum=0.01, affine=True, track_running_stats=True)
          )
        )
      )
    )
    (6): RCABlock(
      (body): Sequential(
        (0): Conv2d(64, 64, kernel_size=(3, 3), stride=(1, 1), padding=(1, 1))
        (1): ReLU(inplace)
        (2): Conv2d(64, 64, kernel_size=(3, 3), stride=(1, 1), padding=(1, 1))
        (3): MultiPoolingSpatialAttn(
          (compress1): ChannelPool(
            (maxpool): AdaptiveMaxPool1d(output_size=1)
            (avgpool): AdaptiveAvgPool1d(output_size=1)
          )
          (compress2): ChannelPool(
            (maxpool): AdaptiveMaxPool1d(output_size=2)
            (avgpool): AdaptiveAvgPool1d(output_size=2)
          )
          (compress3): ChannelPool(
            (maxpool): AdaptiveMaxPool1d(output_size=4)
            (avgpool): AdaptiveAvgPool1d(output_size=4)
          )
          (spatial1): BasicConv(
            (conv): Conv2d(4, 8, kernel_size=(7, 7), stride=(1, 1), padding=(3, 3), bias=False)
            (bn): BatchNorm2d(8, eps=1e-05, momentum=0.01, affine=True, track_running_stats=True)
          )
          (spatial2): BasicConv(
            (conv): Conv2d(8, 8, kernel_size=(7, 7), stride=(1, 1), padding=(3, 3), bias=False)
            (bn): BatchNorm2d(8, eps=1e-05, momentum=0.01, affine=True, track_running_stats=True)
          )
          (spatial3): BasicConv(
            (conv): Conv2d(16, 8, kernel_size=(7, 7), stride=(1, 1), padding=(3, 3), bias=False)
            (bn): BatchNorm2d(8, eps=1e-05, momentum=0.01, affine=True, track_running_stats=True)
          )
        )
      )
    )
    (7): RCABlock(
      (body): Sequential(
        (0): Conv2d(64, 64, kernel_size=(3, 3), stride=(1, 1), padding=(1, 1))
        (1): ReLU(inplace)
        (2): Conv2d(64, 64, kernel_size=(3, 3), stride=(1, 1), padding=(1, 1))
        (3): MultiPoolingSpatialAttn(
          (compress1): ChannelPool(
            (maxpool): AdaptiveMaxPool1d(output_size=1)
            (avgpool): AdaptiveAvgPool1d(output_size=1)
          )
          (compress2): ChannelPool(
            (maxpool): AdaptiveMaxPool1d(output_size=2)
            (avgpool): AdaptiveAvgPool1d(output_size=2)
          )
          (compress3): ChannelPool(
            (maxpool): AdaptiveMaxPool1d(output_size=4)
            (avgpool): AdaptiveAvgPool1d(output_size=4)
          )
          (spatial1): BasicConv(
            (conv): Conv2d(4, 8, kernel_size=(7, 7), stride=(1, 1), padding=(3, 3), bias=False)
            (bn): BatchNorm2d(8, eps=1e-05, momentum=0.01, affine=True, track_running_stats=True)
          )
          (spatial2): BasicConv(
            (conv): Conv2d(8, 8, kernel_size=(7, 7), stride=(1, 1), padding=(3, 3), bias=False)
            (bn): BatchNorm2d(8, eps=1e-05, momentum=0.01, affine=True, track_running_stats=True)
          )
          (spatial3): BasicConv(
            (conv): Conv2d(16, 8, kernel_size=(7, 7), stride=(1, 1), padding=(3, 3), bias=False)
            (bn): BatchNorm2d(8, eps=1e-05, momentum=0.01, affine=True, track_running_stats=True)
          )
        )
      )
    )
    (8): RCABlock(
      (body): Sequential(
        (0): Conv2d(64, 64, kernel_size=(3, 3), stride=(1, 1), padding=(1, 1))
        (1): ReLU(inplace)
        (2): Conv2d(64, 64, kernel_size=(3, 3), stride=(1, 1), padding=(1, 1))
        (3): MultiPoolingSpatialAttn(
          (compress1): ChannelPool(
            (maxpool): AdaptiveMaxPool1d(output_size=1)
            (avgpool): AdaptiveAvgPool1d(output_size=1)
          )
          (compress2): ChannelPool(
            (maxpool): AdaptiveMaxPool1d(output_size=2)
            (avgpool): AdaptiveAvgPool1d(output_size=2)
          )
          (compress3): ChannelPool(
            (maxpool): AdaptiveMaxPool1d(output_size=4)
            (avgpool): AdaptiveAvgPool1d(output_size=4)
          )
          (spatial1): BasicConv(
            (conv): Conv2d(4, 8, kernel_size=(7, 7), stride=(1, 1), padding=(3, 3), bias=False)
            (bn): BatchNorm2d(8, eps=1e-05, momentum=0.01, affine=True, track_running_stats=True)
          )
          (spatial2): BasicConv(
            (conv): Conv2d(8, 8, kernel_size=(7, 7), stride=(1, 1), padding=(3, 3), bias=False)
            (bn): BatchNorm2d(8, eps=1e-05, momentum=0.01, affine=True, track_running_stats=True)
          )
          (spatial3): BasicConv(
            (conv): Conv2d(16, 8, kernel_size=(7, 7), stride=(1, 1), padding=(3, 3), bias=False)
            (bn): BatchNorm2d(8, eps=1e-05, momentum=0.01, affine=True, track_running_stats=True)
          )
        )
      )
    )
    (9): RCABlock(
      (body): Sequential(
        (0): Conv2d(64, 64, kernel_size=(3, 3), stride=(1, 1), padding=(1, 1))
        (1): ReLU(inplace)
        (2): Conv2d(64, 64, kernel_size=(3, 3), stride=(1, 1), padding=(1, 1))
        (3): MultiPoolingSpatialAttn(
          (compress1): ChannelPool(
            (maxpool): AdaptiveMaxPool1d(output_size=1)
            (avgpool): AdaptiveAvgPool1d(output_size=1)
          )
          (compress2): ChannelPool(
            (maxpool): AdaptiveMaxPool1d(output_size=2)
            (avgpool): AdaptiveAvgPool1d(output_size=2)
          )
          (compress3): ChannelPool(
            (maxpool): AdaptiveMaxPool1d(output_size=4)
            (avgpool): AdaptiveAvgPool1d(output_size=4)
          )
          (spatial1): BasicConv(
            (conv): Conv2d(4, 8, kernel_size=(7, 7), stride=(1, 1), padding=(3, 3), bias=False)
            (bn): BatchNorm2d(8, eps=1e-05, momentum=0.01, affine=True, track_running_stats=True)
          )
          (spatial2): BasicConv(
            (conv): Conv2d(8, 8, kernel_size=(7, 7), stride=(1, 1), padding=(3, 3), bias=False)
            (bn): BatchNorm2d(8, eps=1e-05, momentum=0.01, affine=True, track_running_stats=True)
          )
          (spatial3): BasicConv(
            (conv): Conv2d(16, 8, kernel_size=(7, 7), stride=(1, 1), padding=(3, 3), bias=False)
            (bn): BatchNorm2d(8, eps=1e-05, momentum=0.01, affine=True, track_running_stats=True)
          )
        )
      )
    )
    (10): RCABlock(
      (body): Sequential(
        (0): Conv2d(64, 64, kernel_size=(3, 3), stride=(1, 1), padding=(1, 1))
        (1): ReLU(inplace)
        (2): Conv2d(64, 64, kernel_size=(3, 3), stride=(1, 1), padding=(1, 1))
        (3): MultiPoolingSpatialAttn(
          (compress1): ChannelPool(
            (maxpool): AdaptiveMaxPool1d(output_size=1)
            (avgpool): AdaptiveAvgPool1d(output_size=1)
          )
          (compress2): ChannelPool(
            (maxpool): AdaptiveMaxPool1d(output_size=2)
            (avgpool): AdaptiveAvgPool1d(output_size=2)
          )
          (compress3): ChannelPool(
            (maxpool): AdaptiveMaxPool1d(output_size=4)
            (avgpool): AdaptiveAvgPool1d(output_size=4)
          )
          (spatial1): BasicConv(
            (conv): Conv2d(4, 8, kernel_size=(7, 7), stride=(1, 1), padding=(3, 3), bias=False)
            (bn): BatchNorm2d(8, eps=1e-05, momentum=0.01, affine=True, track_running_stats=True)
          )
          (spatial2): BasicConv(
            (conv): Conv2d(8, 8, kernel_size=(7, 7), stride=(1, 1), padding=(3, 3), bias=False)
            (bn): BatchNorm2d(8, eps=1e-05, momentum=0.01, affine=True, track_running_stats=True)
          )
          (spatial3): BasicConv(
            (conv): Conv2d(16, 8, kernel_size=(7, 7), stride=(1, 1), padding=(3, 3), bias=False)
            (bn): BatchNorm2d(8, eps=1e-05, momentum=0.01, affine=True, track_running_stats=True)
          )
        )
      )
    )
    (11): RCABlock(
      (body): Sequential(
        (0): Conv2d(64, 64, kernel_size=(3, 3), stride=(1, 1), padding=(1, 1))
        (1): ReLU(inplace)
        (2): Conv2d(64, 64, kernel_size=(3, 3), stride=(1, 1), padding=(1, 1))
        (3): MultiPoolingSpatialAttn(
          (compress1): ChannelPool(
            (maxpool): AdaptiveMaxPool1d(output_size=1)
            (avgpool): AdaptiveAvgPool1d(output_size=1)
          )
          (compress2): ChannelPool(
            (maxpool): AdaptiveMaxPool1d(output_size=2)
            (avgpool): AdaptiveAvgPool1d(output_size=2)
          )
          (compress3): ChannelPool(
            (maxpool): AdaptiveMaxPool1d(output_size=4)
            (avgpool): AdaptiveAvgPool1d(output_size=4)
          )
          (spatial1): BasicConv(
            (conv): Conv2d(4, 8, kernel_size=(7, 7), stride=(1, 1), padding=(3, 3), bias=False)
            (bn): BatchNorm2d(8, eps=1e-05, momentum=0.01, affine=True, track_running_stats=True)
          )
          (spatial2): BasicConv(
            (conv): Conv2d(8, 8, kernel_size=(7, 7), stride=(1, 1), padding=(3, 3), bias=False)
            (bn): BatchNorm2d(8, eps=1e-05, momentum=0.01, affine=True, track_running_stats=True)
          )
          (spatial3): BasicConv(
            (conv): Conv2d(16, 8, kernel_size=(7, 7), stride=(1, 1), padding=(3, 3), bias=False)
            (bn): BatchNorm2d(8, eps=1e-05, momentum=0.01, affine=True, track_running_stats=True)
          )
        )
      )
    )
    (12): RCABlock(
      (body): Sequential(
        (0): Conv2d(64, 64, kernel_size=(3, 3), stride=(1, 1), padding=(1, 1))
        (1): ReLU(inplace)
        (2): Conv2d(64, 64, kernel_size=(3, 3), stride=(1, 1), padding=(1, 1))
        (3): MultiPoolingSpatialAttn(
          (compress1): ChannelPool(
            (maxpool): AdaptiveMaxPool1d(output_size=1)
            (avgpool): AdaptiveAvgPool1d(output_size=1)
          )
          (compress2): ChannelPool(
            (maxpool): AdaptiveMaxPool1d(output_size=2)
            (avgpool): AdaptiveAvgPool1d(output_size=2)
          )
          (compress3): ChannelPool(
            (maxpool): AdaptiveMaxPool1d(output_size=4)
            (avgpool): AdaptiveAvgPool1d(output_size=4)
          )
          (spatial1): BasicConv(
            (conv): Conv2d(4, 8, kernel_size=(7, 7), stride=(1, 1), padding=(3, 3), bias=False)
            (bn): BatchNorm2d(8, eps=1e-05, momentum=0.01, affine=True, track_running_stats=True)
          )
          (spatial2): BasicConv(
            (conv): Conv2d(8, 8, kernel_size=(7, 7), stride=(1, 1), padding=(3, 3), bias=False)
            (bn): BatchNorm2d(8, eps=1e-05, momentum=0.01, affine=True, track_running_stats=True)
          )
          (spatial3): BasicConv(
            (conv): Conv2d(16, 8, kernel_size=(7, 7), stride=(1, 1), padding=(3, 3), bias=False)
            (bn): BatchNorm2d(8, eps=1e-05, momentum=0.01, affine=True, track_running_stats=True)
          )
        )
      )
    )
    (13): RCABlock(
      (body): Sequential(
        (0): Conv2d(64, 64, kernel_size=(3, 3), stride=(1, 1), padding=(1, 1))
        (1): ReLU(inplace)
        (2): Conv2d(64, 64, kernel_size=(3, 3), stride=(1, 1), padding=(1, 1))
        (3): MultiPoolingSpatialAttn(
          (compress1): ChannelPool(
            (maxpool): AdaptiveMaxPool1d(output_size=1)
            (avgpool): AdaptiveAvgPool1d(output_size=1)
          )
          (compress2): ChannelPool(
            (maxpool): AdaptiveMaxPool1d(output_size=2)
            (avgpool): AdaptiveAvgPool1d(output_size=2)
          )
          (compress3): ChannelPool(
            (maxpool): AdaptiveMaxPool1d(output_size=4)
            (avgpool): AdaptiveAvgPool1d(output_size=4)
          )
          (spatial1): BasicConv(
            (conv): Conv2d(4, 8, kernel_size=(7, 7), stride=(1, 1), padding=(3, 3), bias=False)
            (bn): BatchNorm2d(8, eps=1e-05, momentum=0.01, affine=True, track_running_stats=True)
          )
          (spatial2): BasicConv(
            (conv): Conv2d(8, 8, kernel_size=(7, 7), stride=(1, 1), padding=(3, 3), bias=False)
            (bn): BatchNorm2d(8, eps=1e-05, momentum=0.01, affine=True, track_running_stats=True)
          )
          (spatial3): BasicConv(
            (conv): Conv2d(16, 8, kernel_size=(7, 7), stride=(1, 1), padding=(3, 3), bias=False)
            (bn): BatchNorm2d(8, eps=1e-05, momentum=0.01, affine=True, track_running_stats=True)
          )
        )
      )
    )
    (14): RCABlock(
      (body): Sequential(
        (0): Conv2d(64, 64, kernel_size=(3, 3), stride=(1, 1), padding=(1, 1))
        (1): ReLU(inplace)
        (2): Conv2d(64, 64, kernel_size=(3, 3), stride=(1, 1), padding=(1, 1))
        (3): MultiPoolingSpatialAttn(
          (compress1): ChannelPool(
            (maxpool): AdaptiveMaxPool1d(output_size=1)
            (avgpool): AdaptiveAvgPool1d(output_size=1)
          )
          (compress2): ChannelPool(
            (maxpool): AdaptiveMaxPool1d(output_size=2)
            (avgpool): AdaptiveAvgPool1d(output_size=2)
          )
          (compress3): ChannelPool(
            (maxpool): AdaptiveMaxPool1d(output_size=4)
            (avgpool): AdaptiveAvgPool1d(output_size=4)
          )
          (spatial1): BasicConv(
            (conv): Conv2d(4, 8, kernel_size=(7, 7), stride=(1, 1), padding=(3, 3), bias=False)
            (bn): BatchNorm2d(8, eps=1e-05, momentum=0.01, affine=True, track_running_stats=True)
          )
          (spatial2): BasicConv(
            (conv): Conv2d(8, 8, kernel_size=(7, 7), stride=(1, 1), padding=(3, 3), bias=False)
            (bn): BatchNorm2d(8, eps=1e-05, momentum=0.01, affine=True, track_running_stats=True)
          )
          (spatial3): BasicConv(
            (conv): Conv2d(16, 8, kernel_size=(7, 7), stride=(1, 1), padding=(3, 3), bias=False)
            (bn): BatchNorm2d(8, eps=1e-05, momentum=0.01, affine=True, track_running_stats=True)
          )
        )
      )
    )
    (15): RCABlock(
      (body): Sequential(
        (0): Conv2d(64, 64, kernel_size=(3, 3), stride=(1, 1), padding=(1, 1))
        (1): ReLU(inplace)
        (2): Conv2d(64, 64, kernel_size=(3, 3), stride=(1, 1), padding=(1, 1))
        (3): MultiPoolingSpatialAttn(
          (compress1): ChannelPool(
            (maxpool): AdaptiveMaxPool1d(output_size=1)
            (avgpool): AdaptiveAvgPool1d(output_size=1)
          )
          (compress2): ChannelPool(
            (maxpool): AdaptiveMaxPool1d(output_size=2)
            (avgpool): AdaptiveAvgPool1d(output_size=2)
          )
          (compress3): ChannelPool(
            (maxpool): AdaptiveMaxPool1d(output_size=4)
            (avgpool): AdaptiveAvgPool1d(output_size=4)
          )
          (spatial1): BasicConv(
            (conv): Conv2d(4, 8, kernel_size=(7, 7), stride=(1, 1), padding=(3, 3), bias=False)
            (bn): BatchNorm2d(8, eps=1e-05, momentum=0.01, affine=True, track_running_stats=True)
          )
          (spatial2): BasicConv(
            (conv): Conv2d(8, 8, kernel_size=(7, 7), stride=(1, 1), padding=(3, 3), bias=False)
            (bn): BatchNorm2d(8, eps=1e-05, momentum=0.01, affine=True, track_running_stats=True)
          )
          (spatial3): BasicConv(
            (conv): Conv2d(16, 8, kernel_size=(7, 7), stride=(1, 1), padding=(3, 3), bias=False)
            (bn): BatchNorm2d(8, eps=1e-05, momentum=0.01, affine=True, track_running_stats=True)
          )
        )
      )
    )
    (16): Conv2d(64, 64, kernel_size=(3, 3), stride=(1, 1), padding=(1, 1))
  )
  (tail): Sequential(
    (0): Upsampler(
      (0): Conv2d(64, 256, kernel_size=(3, 3), stride=(1, 1), padding=(1, 1))
      (1): PixelShuffle(upscale_factor=2)
      (2): Conv2d(64, 256, kernel_size=(3, 3), stride=(1, 1), padding=(1, 1))
      (3): PixelShuffle(upscale_factor=2)
    )
    (1): Conv2d(64, 3, kernel_size=(3, 3), stride=(1, 1), padding=(1, 1))
  )
)
[Epoch 1]	Learning rate: 1.00e-4
[1600/15600]	[L1: 27.7470]	23.8+0.8s
[3200/15600]	[L1: 25.1372]	23.8+0.2s
[4800/15600]	[L1: 24.2414]	23.9+0.2s
[6400/15600]	[L1: 23.6626]	23.9+0.2s
[8000/15600]	[L1: 23.1985]	24.1+0.2s
[9600/15600]	[L1: 22.8845]	24.1+0.1s
[11200/15600]	[L1: 22.6759]	24.5+0.2s
[12800/15600]	[L1: 22.4852]	24.4+0.2s
[14400/15600]	[L1: 22.3293]	24.8+0.2s
…
