baseline of edsrca
EDSR(
  (sub_mean): MeanShift(3, 3, kernel_size=(1, 1), stride=(1, 1))
  (add_mean): MeanShift(3, 3, kernel_size=(1, 1), stride=(1, 1))
  (head): Sequential(
    (0): Conv2d(3, 64, kernel_size=(3, 3), stride=(1, 1), padding=(1, 1))
  )
  (body): Sequential(
    (0): RCABlock(
      (body): Sequential(
        (0): Conv2d(64, 64, kernel_size=(3, 3), stride=(1, 1), padding=(1, 1))
        (1): ReLU(inplace)
        (2): Conv2d(64, 64, kernel_size=(3, 3), stride=(1, 1), padding=(1, 1))
        (3): CALayer(
          (avg_pool): AdaptiveAvgPool2d(output_size=1)
          (conv_du): Sequential(
            (0): Conv2d(64, 4, kernel_size=(1, 1), stride=(1, 1))
            (1): ReLU(inplace)
            (2): Conv2d(4, 64, kernel_size=(1, 1), stride=(1, 1))
            (3): Sigmoid()
          )
        )
      )
    )
    (1): RCABlock(
      (body): Sequential(
        (0): Conv2d(64, 64, kernel_size=(3, 3), stride=(1, 1), padding=(1, 1))
        (1): ReLU(inplace)
        (2): Conv2d(64, 64, kernel_size=(3, 3), stride=(1, 1), padding=(1, 1))
        (3): CALayer(
          (avg_pool): AdaptiveAvgPool2d(output_size=1)
          (conv_du): Sequential(
            (0): Conv2d(64, 4, kernel_size=(1, 1), stride=(1, 1))
            (1): ReLU(inplace)
            (2): Conv2d(4, 64, kernel_size=(1, 1), stride=(1, 1))
            (3): Sigmoid()
          )
        )
      )
    )
    (2): RCABlock(
      (body): Sequential(
        (0): Conv2d(64, 64, kernel_size=(3, 3), stride=(1, 1), padding=(1, 1))
        (1): ReLU(inplace)
        (2): Conv2d(64, 64, kernel_size=(3, 3), stride=(1, 1), padding=(1, 1))
        (3): CALayer(
          (avg_pool): AdaptiveAvgPool2d(output_size=1)
          (conv_du): Sequential(
            (0): Conv2d(64, 4, kernel_size=(1, 1), stride=(1, 1))
            (1): ReLU(inplace)
            (2): Conv2d(4, 64, kernel_size=(1, 1), stride=(1, 1))
            (3): Sigmoid()
          )
        )
      )
    )
    (3): RCABlock(
      (body): Sequential(
        (0): Conv2d(64, 64, kernel_size=(3, 3), stride=(1, 1), padding=(1, 1))
        (1): ReLU(inplace)
        (2): Conv2d(64, 64, kernel_size=(3, 3), stride=(1, 1), padding=(1, 1))
        (3): CALayer(
          (avg_pool): AdaptiveAvgPool2d(output_size=1)
          (conv_du): Sequential(
            (0): Conv2d(64, 4, kernel_size=(1, 1), stride=(1, 1))
            (1): ReLU(inplace)
            (2): Conv2d(4, 64, kernel_size=(1, 1), stride=(1, 1))
            (3): Sigmoid()
          )
        )
      )
    )
    (4): RCABlock(
      (body): Sequential(
        (0): Conv2d(64, 64, kernel_size=(3, 3), stride=(1, 1), padding=(1, 1))
        (1): ReLU(inplace)
        (2): Conv2d(64, 64, kernel_size=(3, 3), stride=(1, 1), padding=(1, 1))
        (3): CALayer(
          (avg_pool): AdaptiveAvgPool2d(output_size=1)
          (conv_du): Sequential(
            (0): Conv2d(64, 4, kernel_size=(1, 1), stride=(1, 1))
            (1): ReLU(inplace)
            (2): Conv2d(4, 64, kernel_size=(1, 1), stride=(1, 1))
            (3): Sigmoid()
          )
        )
      )
    )
    (5): RCABlock(
      (body): Sequential(
        (0): Conv2d(64, 64, kernel_size=(3, 3), stride=(1, 1), padding=(1, 1))
        (1): ReLU(inplace)
        (2): Conv2d(64, 64, kernel_size=(3, 3), stride=(1, 1), padding=(1, 1))
        (3): CALayer(
          (avg_pool): AdaptiveAvgPool2d(output_size=1)
          (conv_du): Sequential(
            (0): Conv2d(64, 4, kernel_size=(1, 1), stride=(1, 1))
            (1): ReLU(inplace)
            (2): Conv2d(4, 64, kernel_size=(1, 1), stride=(1, 1))
            (3): Sigmoid()
          )
        )
      )
    )
    (6): RCABlock(
      (body): Sequential(
        (0): Conv2d(64, 64, kernel_size=(3, 3), stride=(1, 1), padding=(1, 1))
        (1): ReLU(inplace)
        (2): Conv2d(64, 64, kernel_size=(3, 3), stride=(1, 1), padding=(1, 1))
        (3): CALayer(
          (avg_pool): AdaptiveAvgPool2d(output_size=1)
          (conv_du): Sequential(
            (0): Conv2d(64, 4, kernel_size=(1, 1), stride=(1, 1))
            (1): ReLU(inplace)
            (2): Conv2d(4, 64, kernel_size=(1, 1), stride=(1, 1))
            (3): Sigmoid()
          )
        )
      )
    )
    (7): RCABlock(
      (body): Sequential(
        (0): Conv2d(64, 64, kernel_size=(3, 3), stride=(1, 1), padding=(1, 1))
        (1): ReLU(inplace)
        (2): Conv2d(64, 64, kernel_size=(3, 3), stride=(1, 1), padding=(1, 1))
        (3): CALayer(
          (avg_pool): AdaptiveAvgPool2d(output_size=1)
          (conv_du): Sequential(
            (0): Conv2d(64, 4, kernel_size=(1, 1), stride=(1, 1))
            (1): ReLU(inplace)
            (2): Conv2d(4, 64, kernel_size=(1, 1), stride=(1, 1))
            (3): Sigmoid()
          )
        )
      )
    )
    (8): RCABlock(
      (body): Sequential(
        (0): Conv2d(64, 64, kernel_size=(3, 3), stride=(1, 1), padding=(1, 1))
        (1): ReLU(inplace)
        (2): Conv2d(64, 64, kernel_size=(3, 3), stride=(1, 1), padding=(1, 1))
        (3): CALayer(
          (avg_pool): AdaptiveAvgPool2d(output_size=1)
          (conv_du): Sequential(
            (0): Conv2d(64, 4, kernel_size=(1, 1), stride=(1, 1))
            (1): ReLU(inplace)
            (2): Conv2d(4, 64, kernel_size=(1, 1), stride=(1, 1))
            (3): Sigmoid()
          )
        )
      )
    )
    (9): RCABlock(
      (body): Sequential(
        (0): Conv2d(64, 64, kernel_size=(3, 3), stride=(1, 1), padding=(1, 1))
        (1): ReLU(inplace)
        (2): Conv2d(64, 64, kernel_size=(3, 3), stride=(1, 1), padding=(1, 1))
        (3): CALayer(
          (avg_pool): AdaptiveAvgPool2d(output_size=1)
          (conv_du): Sequential(
            (0): Conv2d(64, 4, kernel_size=(1, 1), stride=(1, 1))
            (1): ReLU(inplace)
            (2): Conv2d(4, 64, kernel_size=(1, 1), stride=(1, 1))
            (3): Sigmoid()
          )
        )
      )
    )
    (10): RCABlock(
      (body): Sequential(
        (0): Conv2d(64, 64, kernel_size=(3, 3), stride=(1, 1), padding=(1, 1))
        (1): ReLU(inplace)
        (2): Conv2d(64, 64, kernel_size=(3, 3), stride=(1, 1), padding=(1, 1))
        (3): CALayer(
          (avg_pool): AdaptiveAvgPool2d(output_size=1)
          (conv_du): Sequential(
            (0): Conv2d(64, 4, kernel_size=(1, 1), stride=(1, 1))
            (1): ReLU(inplace)
            (2): Conv2d(4, 64, kernel_size=(1, 1), stride=(1, 1))
            (3): Sigmoid()
          )
        )
      )
    )
    (11): RCABlock(
      (body): Sequential(
        (0): Conv2d(64, 64, kernel_size=(3, 3), stride=(1, 1), padding=(1, 1))
        (1): ReLU(inplace)
        (2): Conv2d(64, 64, kernel_size=(3, 3), stride=(1, 1), padding=(1, 1))
        (3): CALayer(
          (avg_pool): AdaptiveAvgPool2d(output_size=1)
          (conv_du): Sequential(
            (0): Conv2d(64, 4, kernel_size=(1, 1), stride=(1, 1))
            (1): ReLU(inplace)
            (2): Conv2d(4, 64, kernel_size=(1, 1), stride=(1, 1))
            (3): Sigmoid()
          )
        )
      )
    )
    (12): RCABlock(
      (body): Sequential(
        (0): Conv2d(64, 64, kernel_size=(3, 3), stride=(1, 1), padding=(1, 1))
        (1): ReLU(inplace)
        (2): Conv2d(64, 64, kernel_size=(3, 3), stride=(1, 1), padding=(1, 1))
        (3): CALayer(
          (avg_pool): AdaptiveAvgPool2d(output_size=1)
          (conv_du): Sequential(
            (0): Conv2d(64, 4, kernel_size=(1, 1), stride=(1, 1))
            (1): ReLU(inplace)
            (2): Conv2d(4, 64, kernel_size=(1, 1), stride=(1, 1))
            (3): Sigmoid()
          )
        )
      )
    )
    (13): RCABlock(
      (body): Sequential(
        (0): Conv2d(64, 64, kernel_size=(3, 3), stride=(1, 1), padding=(1, 1))
        (1): ReLU(inplace)
        (2): Conv2d(64, 64, kernel_size=(3, 3), stride=(1, 1), padding=(1, 1))
        (3): CALayer(
          (avg_pool): AdaptiveAvgPool2d(output_size=1)
          (conv_du): Sequential(
            (0): Conv2d(64, 4, kernel_size=(1, 1), stride=(1, 1))
            (1): ReLU(inplace)
            (2): Conv2d(4, 64, kernel_size=(1, 1), stride=(1, 1))
            (3): Sigmoid()
          )
        )
      )
    )
    (14): RCABlock(
      (body): Sequential(
        (0): Conv2d(64, 64, kernel_size=(3, 3), stride=(1, 1), padding=(1, 1))
        (1): ReLU(inplace)
        (2): Conv2d(64, 64, kernel_size=(3, 3), stride=(1, 1), padding=(1, 1))
        (3): CALayer(
          (avg_pool): AdaptiveAvgPool2d(output_size=1)
          (conv_du): Sequential(
            (0): Conv2d(64, 4, kernel_size=(1, 1), stride=(1, 1))
            (1): ReLU(inplace)
            (2): Conv2d(4, 64, kernel_size=(1, 1), stride=(1, 1))
            (3): Sigmoid()
          )
        )
      )
    )
    (15): RCABlock(
      (body): Sequential(
        (0): Conv2d(64, 64, kernel_size=(3, 3), stride=(1, 1), padding=(1, 1))
        (1): ReLU(inplace)
        (2): Conv2d(64, 64, kernel_size=(3, 3), stride=(1, 1), padding=(1, 1))
        (3): CALayer(
          (avg_pool): AdaptiveAvgPool2d(output_size=1)
          (conv_du): Sequential(
            (0): Conv2d(64, 4, kernel_size=(1, 1), stride=(1, 1))
            (1): ReLU(inplace)
            (2): Conv2d(4, 64, kernel_size=(1, 1), stride=(1, 1))
            (3): Sigmoid()
          )
        )
      )
    )
    (16): Conv2d(64, 64, kernel_size=(3, 3), stride=(1, 1), padding=(1, 1))
  )
  (tail): Sequential(
    (0): Upsampler(
      (0): Conv2d(64, 256, kernel_size=(3, 3), stride=(1, 1), padding=(1, 1))
      (1): PixelShuffle(upscale_factor=2)
      (2): Conv2d(64, 256, kernel_size=(3, 3), stride=(1, 1), padding=(1, 1))
      (3): PixelShuffle(upscale_factor=2)
    )
    (1): Conv2d(64, 3, kernel_size=(3, 3), stride=(1, 1), padding=(1, 1))
  )
)
[Epoch 1]	Learning rate: 1.00e-4
[1600/15532]	[L1: 26.5452]	12.9+18.2s
[3200/15532]	[L1: 24.1882]	11.4+7.5s
[4800/15532]	[L1: 23.5276]	11.4+0.7s
[6400/15532]	[L1: 23.0181]	11.4+0.7s
[8000/15532]	[L1: 22.7988]	11.4+0.7s
[9600/15532]	[L1: 22.4465]	11.5+0.7s
[11200/15532]	[L1: 22.2395]	11.4+0.7s
[12800/15532]	[L1: 22.0864]	11.4+0.7s
[14400/15532]	[L1: 21.9478]	11.4+0.7s
…
