RDNx4 result
RDN(
  (SFENet1): Conv2d(3, 64, kernel_size=(3, 3), stride=(1, 1), padding=(1, 1))
  (SFENet2): Conv2d(64, 64, kernel_size=(3, 3), stride=(1, 1), padding=(1, 1))
  (RDBs): ModuleList(
    (0): RDB(
      (convs): Sequential(
        (0): RDB_Conv(
          (conv): Sequential(
            (0): Conv2d(64, 64, kernel_size=(3, 3), stride=(1, 1), padding=(1, 1))
            (1): ReLU()
          )
        )
        (1): RDB_Conv(
          (conv): Sequential(
            (0): Conv2d(128, 64, kernel_size=(3, 3), stride=(1, 1), padding=(1, 1))
            (1): ReLU()
          )
        )
        (2): RDB_Conv(
          (conv): Sequential(
            (0): Conv2d(192, 64, kernel_size=(3, 3), stride=(1, 1), padding=(1, 1))
            (1): ReLU()
          )
        )
        (3): RDB_Conv(
          (conv): Sequential(
            (0): Conv2d(256, 64, kernel_size=(3, 3), stride=(1, 1), padding=(1, 1))
            (1): ReLU()
          )
        )
        (4): RDB_Conv(
          (conv): Sequential(
            (0): Conv2d(320, 64, kernel_size=(3, 3), stride=(1, 1), padding=(1, 1))
            (1): ReLU()
          )
        )
        (5): RDB_Conv(
          (conv): Sequential(
            (0): Conv2d(384, 64, kernel_size=(3, 3), stride=(1, 1), padding=(1, 1))
            (1): ReLU()
          )
        )
        (6): RDB_Conv(
          (conv): Sequential(
            (0): Conv2d(448, 64, kernel_size=(3, 3), stride=(1, 1), padding=(1, 1))
            (1): ReLU()
          )
        )
        (7): RDB_Conv(
          (conv): Sequential(
            (0): Conv2d(512, 64, kernel_size=(3, 3), stride=(1, 1), padding=(1, 1))
            (1): ReLU()
          )
        )
      )
      (LFF): Conv2d(576, 64, kernel_size=(1, 1), stride=(1, 1))
    )
    (1): RDB(
      (convs): Sequential(
        (0): RDB_Conv(
          (conv): Sequential(
            (0): Conv2d(64, 64, kernel_size=(3, 3), stride=(1, 1), padding=(1, 1))
            (1): ReLU()
          )
        )
        (1): RDB_Conv(
          (conv): Sequential(
            (0): Conv2d(128, 64, kernel_size=(3, 3), stride=(1, 1), padding=(1, 1))
            (1): ReLU()
          )
        )
        (2): RDB_Conv(
          (conv): Sequential(
            (0): Conv2d(192, 64, kernel_size=(3, 3), stride=(1, 1), padding=(1, 1))
            (1): ReLU()
          )
        )
        (3): RDB_Conv(
          (conv): Sequential(
            (0): Conv2d(256, 64, kernel_size=(3, 3), stride=(1, 1), padding=(1, 1))
            (1): ReLU()
          )
        )
        (4): RDB_Conv(
          (conv): Sequential(
            (0): Conv2d(320, 64, kernel_size=(3, 3), stride=(1, 1), padding=(1, 1))
            (1): ReLU()
          )
        )
        (5): RDB_Conv(
          (conv): Sequential(
            (0): Conv2d(384, 64, kernel_size=(3, 3), stride=(1, 1), padding=(1, 1))
            (1): ReLU()
          )
        )
        (6): RDB_Conv(
          (conv): Sequential(
            (0): Conv2d(448, 64, kernel_size=(3, 3), stride=(1, 1), padding=(1, 1))
            (1): ReLU()
          )
        )
        (7): RDB_Conv(
          (conv): Sequential(
            (0): Conv2d(512, 64, kernel_size=(3, 3), stride=(1, 1), padding=(1, 1))
            (1): ReLU()
          )
        )
      )
      (LFF): Conv2d(576, 64, kernel_size=(1, 1), stride=(1, 1))
    )
    (2): RDB(
      (convs): Sequential(
        (0): RDB_Conv(
          (conv): Sequential(
            (0): Conv2d(64, 64, kernel_size=(3, 3), stride=(1, 1), padding=(1, 1))
            (1): ReLU()
          )
        )
        (1): RDB_Conv(
          (conv): Sequential(
            (0): Conv2d(128, 64, kernel_size=(3, 3), stride=(1, 1), padding=(1, 1))
            (1): ReLU()
          )
        )
        (2): RDB_Conv(
          (conv): Sequential(
            (0): Conv2d(192, 64, kernel_size=(3, 3), stride=(1, 1), padding=(1, 1))
            (1): ReLU()
          )
        )
        (3): RDB_Conv(
          (conv): Sequential(
            (0): Conv2d(256, 64, kernel_size=(3, 3), stride=(1, 1), padding=(1, 1))
            (1): ReLU()
          )
        )
        (4): RDB_Conv(
          (conv): Sequential(
            (0): Conv2d(320, 64, kernel_size=(3, 3), stride=(1, 1), padding=(1, 1))
            (1): ReLU()
          )
        )
        (5): RDB_Conv(
          (conv): Sequential(
            (0): Conv2d(384, 64, kernel_size=(3, 3), stride=(1, 1), padding=(1, 1))
            (1): ReLU()
          )
        )
        (6): RDB_Conv(
          (conv): Sequential(
            (0): Conv2d(448, 64, kernel_size=(3, 3), stride=(1, 1), padding=(1, 1))
            (1): ReLU()
          )
        )
        (7): RDB_Conv(
          (conv): Sequential(
            (0): Conv2d(512, 64, kernel_size=(3, 3), stride=(1, 1), padding=(1, 1))
            (1): ReLU()
          )
        )
      )
      (LFF): Conv2d(576, 64, kernel_size=(1, 1), stride=(1, 1))
    )
    (3): RDB(
      (convs): Sequential(
        (0): RDB_Conv(
          (conv): Sequential(
            (0): Conv2d(64, 64, kernel_size=(3, 3), stride=(1, 1), padding=(1, 1))
            (1): ReLU()
          )
        )
        (1): RDB_Conv(
          (conv): Sequential(
            (0): Conv2d(128, 64, kernel_size=(3, 3), stride=(1, 1), padding=(1, 1))
            (1): ReLU()
          )
        )
        (2): RDB_Conv(
          (conv): Sequential(
            (0): Conv2d(192, 64, kernel_size=(3, 3), stride=(1, 1), padding=(1, 1))
            (1): ReLU()
          )
        )
        (3): RDB_Conv(
          (conv): Sequential(
            (0): Conv2d(256, 64, kernel_size=(3, 3), stride=(1, 1), padding=(1, 1))
            (1): ReLU()
          )
        )
        (4): RDB_Conv(
          (conv): Sequential(
            (0): Conv2d(320, 64, kernel_size=(3, 3), stride=(1, 1), padding=(1, 1))
            (1): ReLU()
          )
        )
        (5): RDB_Conv(
          (conv): Sequential(
            (0): Conv2d(384, 64, kernel_size=(3, 3), stride=(1, 1), padding=(1, 1))
            (1): ReLU()
          )
        )
        (6): RDB_Conv(
          (conv): Sequential(
            (0): Conv2d(448, 64, kernel_size=(3, 3), stride=(1, 1), padding=(1, 1))
            (1): ReLU()
          )
        )
        (7): RDB_Conv(
          (conv): Sequential(
            (0): Conv2d(512, 64, kernel_size=(3, 3), stride=(1, 1), padding=(1, 1))
            (1): ReLU()
          )
        )
      )
      (LFF): Conv2d(576, 64, kernel_size=(1, 1), stride=(1, 1))
    )
    (4): RDB(
      (convs): Sequential(
        (0): RDB_Conv(
          (conv): Sequential(
            (0): Conv2d(64, 64, kernel_size=(3, 3), stride=(1, 1), padding=(1, 1))
            (1): ReLU()
          )
        )
        (1): RDB_Conv(
          (conv): Sequential(
            (0): Conv2d(128, 64, kernel_size=(3, 3), stride=(1, 1), padding=(1, 1))
            (1): ReLU()
          )
        )
        (2): RDB_Conv(
          (conv): Sequential(
            (0): Conv2d(192, 64, kernel_size=(3, 3), stride=(1, 1), padding=(1, 1))
            (1): ReLU()
          )
        )
        (3): RDB_Conv(
          (conv): Sequential(
            (0): Conv2d(256, 64, kernel_size=(3, 3), stride=(1, 1), padding=(1, 1))
            (1): ReLU()
          )
        )
        (4): RDB_Conv(
          (conv): Sequential(
            (0): Conv2d(320, 64, kernel_size=(3, 3), stride=(1, 1), padding=(1, 1))
            (1): ReLU()
          )
        )
        (5): RDB_Conv(
          (conv): Sequential(
            (0): Conv2d(384, 64, kernel_size=(3, 3), stride=(1, 1), padding=(1, 1))
            (1): ReLU()
          )
        )
        (6): RDB_Conv(
          (conv): Sequential(
            (0): Conv2d(448, 64, kernel_size=(3, 3), stride=(1, 1), padding=(1, 1))
            (1): ReLU()
          )
        )
        (7): RDB_Conv(
          (conv): Sequential(
            (0): Conv2d(512, 64, kernel_size=(3, 3), stride=(1, 1), padding=(1, 1))
            (1): ReLU()
          )
        )
      )
      (LFF): Conv2d(576, 64, kernel_size=(1, 1), stride=(1, 1))
    )
    (5): RDB(
      (convs): Sequential(
        (0): RDB_Conv(
          (conv): Sequential(
            (0): Conv2d(64, 64, kernel_size=(3, 3), stride=(1, 1), padding=(1, 1))
            (1): ReLU()
          )
        )
        (1): RDB_Conv(
          (conv): Sequential(
            (0): Conv2d(128, 64, kernel_size=(3, 3), stride=(1, 1), padding=(1, 1))
            (1): ReLU()
          )
        )
        (2): RDB_Conv(
          (conv): Sequential(
            (0): Conv2d(192, 64, kernel_size=(3, 3), stride=(1, 1), padding=(1, 1))
            (1): ReLU()
          )
        )
        (3): RDB_Conv(
          (conv): Sequential(
            (0): Conv2d(256, 64, kernel_size=(3, 3), stride=(1, 1), padding=(1, 1))
            (1): ReLU()
          )
        )
        (4): RDB_Conv(
          (conv): Sequential(
            (0): Conv2d(320, 64, kernel_size=(3, 3), stride=(1, 1), padding=(1, 1))
            (1): ReLU()
          )
        )
        (5): RDB_Conv(
          (conv): Sequential(
            (0): Conv2d(384, 64, kernel_size=(3, 3), stride=(1, 1), padding=(1, 1))
            (1): ReLU()
          )
        )
        (6): RDB_Conv(
          (conv): Sequential(
            (0): Conv2d(448, 64, kernel_size=(3, 3), stride=(1, 1), padding=(1, 1))
            (1): ReLU()
          )
        )
        (7): RDB_Conv(
          (conv): Sequential(
            (0): Conv2d(512, 64, kernel_size=(3, 3), stride=(1, 1), padding=(1, 1))
            (1): ReLU()
          )
        )
      )
      (LFF): Conv2d(576, 64, kernel_size=(1, 1), stride=(1, 1))
    )
    (6): RDB(
      (convs): Sequential(
        (0): RDB_Conv(
          (conv): Sequential(
            (0): Conv2d(64, 64, kernel_size=(3, 3), stride=(1, 1), padding=(1, 1))
            (1): ReLU()
          )
        )
        (1): RDB_Conv(
          (conv): Sequential(
            (0): Conv2d(128, 64, kernel_size=(3, 3), stride=(1, 1), padding=(1, 1))
            (1): ReLU()
          )
        )
        (2): RDB_Conv(
          (conv): Sequential(
            (0): Conv2d(192, 64, kernel_size=(3, 3), stride=(1, 1), padding=(1, 1))
            (1): ReLU()
          )
        )
        (3): RDB_Conv(
          (conv): Sequential(
            (0): Conv2d(256, 64, kernel_size=(3, 3), stride=(1, 1), padding=(1, 1))
            (1): ReLU()
          )
        )
        (4): RDB_Conv(
          (conv): Sequential(
            (0): Conv2d(320, 64, kernel_size=(3, 3), stride=(1, 1), padding=(1, 1))
            (1): ReLU()
          )
        )
        (5): RDB_Conv(
          (conv): Sequential(
            (0): Conv2d(384, 64, kernel_size=(3, 3), stride=(1, 1), padding=(1, 1))
            (1): ReLU()
          )
        )
        (6): RDB_Conv(
          (conv): Sequential(
            (0): Conv2d(448, 64, kernel_size=(3, 3), stride=(1, 1), padding=(1, 1))
            (1): ReLU()
          )
        )
        (7): RDB_Conv(
          (conv): Sequential(
            (0): Conv2d(512, 64, kernel_size=(3, 3), stride=(1, 1), padding=(1, 1))
            (1): ReLU()
          )
        )
      )
      (LFF): Conv2d(576, 64, kernel_size=(1, 1), stride=(1, 1))
    )
    (7): RDB(
      (convs): Sequential(
        (0): RDB_Conv(
          (conv): Sequential(
            (0): Conv2d(64, 64, kernel_size=(3, 3), stride=(1, 1), padding=(1, 1))
            (1): ReLU()
          )
        )
        (1): RDB_Conv(
          (conv): Sequential(
            (0): Conv2d(128, 64, kernel_size=(3, 3), stride=(1, 1), padding=(1, 1))
            (1): ReLU()
          )
        )
        (2): RDB_Conv(
          (conv): Sequential(
            (0): Conv2d(192, 64, kernel_size=(3, 3), stride=(1, 1), padding=(1, 1))
            (1): ReLU()
          )
        )
        (3): RDB_Conv(
          (conv): Sequential(
            (0): Conv2d(256, 64, kernel_size=(3, 3), stride=(1, 1), padding=(1, 1))
            (1): ReLU()
          )
        )
        (4): RDB_Conv(
          (conv): Sequential(
            (0): Conv2d(320, 64, kernel_size=(3, 3), stride=(1, 1), padding=(1, 1))
            (1): ReLU()
          )
        )
        (5): RDB_Conv(
          (conv): Sequential(
            (0): Conv2d(384, 64, kernel_size=(3, 3), stride=(1, 1), padding=(1, 1))
            (1): ReLU()
          )
        )
        (6): RDB_Conv(
          (conv): Sequential(
            (0): Conv2d(448, 64, kernel_size=(3, 3), stride=(1, 1), padding=(1, 1))
            (1): ReLU()
          )
        )
        (7): RDB_Conv(
          (conv): Sequential(
            (0): Conv2d(512, 64, kernel_size=(3, 3), stride=(1, 1), padding=(1, 1))
            (1): ReLU()
          )
        )
      )
      (LFF): Conv2d(576, 64, kernel_size=(1, 1), stride=(1, 1))
    )
    (8): RDB(
      (convs): Sequential(
        (0): RDB_Conv(
          (conv): Sequential(
            (0): Conv2d(64, 64, kernel_size=(3, 3), stride=(1, 1), padding=(1, 1))
            (1): ReLU()
          )
        )
        (1): RDB_Conv(
          (conv): Sequential(
            (0): Conv2d(128, 64, kernel_size=(3, 3), stride=(1, 1), padding=(1, 1))
            (1): ReLU()
          )
        )
        (2): RDB_Conv(
          (conv): Sequential(
            (0): Conv2d(192, 64, kernel_size=(3, 3), stride=(1, 1), padding=(1, 1))
            (1): ReLU()
          )
        )
        (3): RDB_Conv(
          (conv): Sequential(
            (0): Conv2d(256, 64, kernel_size=(3, 3), stride=(1, 1), padding=(1, 1))
            (1): ReLU()
          )
        )
        (4): RDB_Conv(
          (conv): Sequential(
            (0): Conv2d(320, 64, kernel_size=(3, 3), stride=(1, 1), padding=(1, 1))
            (1): ReLU()
          )
        )
        (5): RDB_Conv(
          (conv): Sequential(
            (0): Conv2d(384, 64, kernel_size=(3, 3), stride=(1, 1), padding=(1, 1))
            (1): ReLU()
          )
        )
        (6): RDB_Conv(
          (conv): Sequential(
            (0): Conv2d(448, 64, kernel_size=(3, 3), stride=(1, 1), padding=(1, 1))
            (1): ReLU()
          )
        )
        (7): RDB_Conv(
          (conv): Sequential(
            (0): Conv2d(512, 64, kernel_size=(3, 3), stride=(1, 1), padding=(1, 1))
            (1): ReLU()
          )
        )
      )
      (LFF): Conv2d(576, 64, kernel_size=(1, 1), stride=(1, 1))
    )
    (9): RDB(
      (convs): Sequential(
        (0): RDB_Conv(
          (conv): Sequential(
            (0): Conv2d(64, 64, kernel_size=(3, 3), stride=(1, 1), padding=(1, 1))
            (1): ReLU()
          )
        )
        (1): RDB_Conv(
          (conv): Sequential(
            (0): Conv2d(128, 64, kernel_size=(3, 3), stride=(1, 1), padding=(1, 1))
            (1): ReLU()
          )
        )
        (2): RDB_Conv(
          (conv): Sequential(
            (0): Conv2d(192, 64, kernel_size=(3, 3), stride=(1, 1), padding=(1, 1))
            (1): ReLU()
          )
        )
        (3): RDB_Conv(
          (conv): Sequential(
            (0): Conv2d(256, 64, kernel_size=(3, 3), stride=(1, 1), padding=(1, 1))
            (1): ReLU()
          )
        )
        (4): RDB_Conv(
          (conv): Sequential(
            (0): Conv2d(320, 64, kernel_size=(3, 3), stride=(1, 1), padding=(1, 1))
            (1): ReLU()
          )
        )
        (5): RDB_Conv(
          (conv): Sequential(
            (0): Conv2d(384, 64, kernel_size=(3, 3), stride=(1, 1), padding=(1, 1))
            (1): ReLU()
          )
        )
        (6): RDB_Conv(
          (conv): Sequential(
            (0): Conv2d(448, 64, kernel_size=(3, 3), stride=(1, 1), padding=(1, 1))
            (1): ReLU()
          )
        )
        (7): RDB_Conv(
          (conv): Sequential(
            (0): Conv2d(512, 64, kernel_size=(3, 3), stride=(1, 1), padding=(1, 1))
            (1): ReLU()
          )
        )
      )
      (LFF): Conv2d(576, 64, kernel_size=(1, 1), stride=(1, 1))
    )
    (10): RDB(
      (convs): Sequential(
        (0): RDB_Conv(
          (conv): Sequential(
            (0): Conv2d(64, 64, kernel_size=(3, 3), stride=(1, 1), padding=(1, 1))
            (1): ReLU()
          )
        )
        (1): RDB_Conv(
          (conv): Sequential(
            (0): Conv2d(128, 64, kernel_size=(3, 3), stride=(1, 1), padding=(1, 1))
            (1): ReLU()
          )
        )
        (2): RDB_Conv(
          (conv): Sequential(
            (0): Conv2d(192, 64, kernel_size=(3, 3), stride=(1, 1), padding=(1, 1))
            (1): ReLU()
          )
        )
        (3): RDB_Conv(
          (conv): Sequential(
            (0): Conv2d(256, 64, kernel_size=(3, 3), stride=(1, 1), padding=(1, 1))
            (1): ReLU()
          )
        )
        (4): RDB_Conv(
          (conv): Sequential(
            (0): Conv2d(320, 64, kernel_size=(3, 3), stride=(1, 1), padding=(1, 1))
            (1): ReLU()
          )
        )
        (5): RDB_Conv(
          (conv): Sequential(
            (0): Conv2d(384, 64, kernel_size=(3, 3), stride=(1, 1), padding=(1, 1))
            (1): ReLU()
          )
        )
        (6): RDB_Conv(
          (conv): Sequential(
            (0): Conv2d(448, 64, kernel_size=(3, 3), stride=(1, 1), padding=(1, 1))
            (1): ReLU()
          )
        )
        (7): RDB_Conv(
          (conv): Sequential(
            (0): Conv2d(512, 64, kernel_size=(3, 3), stride=(1, 1), padding=(1, 1))
            (1): ReLU()
          )
        )
      )
      (LFF): Conv2d(576, 64, kernel_size=(1, 1), stride=(1, 1))
    )
    (11): RDB(
      (convs): Sequential(
        (0): RDB_Conv(
          (conv): Sequential(
            (0): Conv2d(64, 64, kernel_size=(3, 3), stride=(1, 1), padding=(1, 1))
            (1): ReLU()
          )
        )
        (1): RDB_Conv(
          (conv): Sequential(
            (0): Conv2d(128, 64, kernel_size=(3, 3), stride=(1, 1), padding=(1, 1))
            (1): ReLU()
          )
        )
        (2): RDB_Conv(
          (conv): Sequential(
            (0): Conv2d(192, 64, kernel_size=(3, 3), stride=(1, 1), padding=(1, 1))
            (1): ReLU()
          )
        )
        (3): RDB_Conv(
          (conv): Sequential(
            (0): Conv2d(256, 64, kernel_size=(3, 3), stride=(1, 1), padding=(1, 1))
            (1): ReLU()
          )
        )
        (4): RDB_Conv(
          (conv): Sequential(
            (0): Conv2d(320, 64, kernel_size=(3, 3), stride=(1, 1), padding=(1, 1))
            (1): ReLU()
          )
        )
        (5): RDB_Conv(
          (conv): Sequential(
            (0): Conv2d(384, 64, kernel_size=(3, 3), stride=(1, 1), padding=(1, 1))
            (1): ReLU()
          )
        )
        (6): RDB_Conv(
          (conv): Sequential(
            (0): Conv2d(448, 64, kernel_size=(3, 3), stride=(1, 1), padding=(1, 1))
            (1): ReLU()
          )
        )
        (7): RDB_Conv(
          (conv): Sequential(
            (0): Conv2d(512, 64, kernel_size=(3, 3), stride=(1, 1), padding=(1, 1))
            (1): ReLU()
          )
        )
      )
      (LFF): Conv2d(576, 64, kernel_size=(1, 1), stride=(1, 1))
    )
    (12): RDB(
      (convs): Sequential(
        (0): RDB_Conv(
          (conv): Sequential(
            (0): Conv2d(64, 64, kernel_size=(3, 3), stride=(1, 1), padding=(1, 1))
            (1): ReLU()
          )
        )
        (1): RDB_Conv(
          (conv): Sequential(
            (0): Conv2d(128, 64, kernel_size=(3, 3), stride=(1, 1), padding=(1, 1))
            (1): ReLU()
          )
        )
        (2): RDB_Conv(
          (conv): Sequential(
            (0): Conv2d(192, 64, kernel_size=(3, 3), stride=(1, 1), padding=(1, 1))
            (1): ReLU()
          )
        )
        (3): RDB_Conv(
          (conv): Sequential(
            (0): Conv2d(256, 64, kernel_size=(3, 3), stride=(1, 1), padding=(1, 1))
            (1): ReLU()
          )
        )
        (4): RDB_Conv(
          (conv): Sequential(
            (0): Conv2d(320, 64, kernel_size=(3, 3), stride=(1, 1), padding=(1, 1))
            (1): ReLU()
          )
        )
        (5): RDB_Conv(
          (conv): Sequential(
            (0): Conv2d(384, 64, kernel_size=(3, 3), stride=(1, 1), padding=(1, 1))
            (1): ReLU()
          )
        )
        (6): RDB_Conv(
          (conv): Sequential(
            (0): Conv2d(448, 64, kernel_size=(3, 3), stride=(1, 1), padding=(1, 1))
            (1): ReLU()
          )
        )
        (7): RDB_Conv(
          (conv): Sequential(
            (0): Conv2d(512, 64, kernel_size=(3, 3), stride=(1, 1), padding=(1, 1))
            (1): ReLU()
          )
        )
      )
      (LFF): Conv2d(576, 64, kernel_size=(1, 1), stride=(1, 1))
    )
    (13): RDB(
      (convs): Sequential(
        (0): RDB_Conv(
          (conv): Sequential(
            (0): Conv2d(64, 64, kernel_size=(3, 3), stride=(1, 1), padding=(1, 1))
            (1): ReLU()
          )
        )
        (1): RDB_Conv(
          (conv): Sequential(
            (0): Conv2d(128, 64, kernel_size=(3, 3), stride=(1, 1), padding=(1, 1))
            (1): ReLU()
          )
        )
        (2): RDB_Conv(
          (conv): Sequential(
            (0): Conv2d(192, 64, kernel_size=(3, 3), stride=(1, 1), padding=(1, 1))
            (1): ReLU()
          )
        )
        (3): RDB_Conv(
          (conv): Sequential(
            (0): Conv2d(256, 64, kernel_size=(3, 3), stride=(1, 1), padding=(1, 1))
            (1): ReLU()
          )
        )
        (4): RDB_Conv(
          (conv): Sequential(
            (0): Conv2d(320, 64, kernel_size=(3, 3), stride=(1, 1), padding=(1, 1))
            (1): ReLU()
          )
        )
        (5): RDB_Conv(
          (conv): Sequential(
            (0): Conv2d(384, 64, kernel_size=(3, 3), stride=(1, 1), padding=(1, 1))
            (1): ReLU()
          )
        )
        (6): RDB_Conv(
          (conv): Sequential(
            (0): Conv2d(448, 64, kernel_size=(3, 3), stride=(1, 1), padding=(1, 1))
            (1): ReLU()
          )
        )
        (7): RDB_Conv(
          (conv): Sequential(
            (0): Conv2d(512, 64, kernel_size=(3, 3), stride=(1, 1), padding=(1, 1))
            (1): ReLU()
          )
        )
      )
      (LFF): Conv2d(576, 64, kernel_size=(1, 1), stride=(1, 1))
    )
    (14): RDB(
      (convs): Sequential(
        (0): RDB_Conv(
          (conv): Sequential(
            (0): Conv2d(64, 64, kernel_size=(3, 3), stride=(1, 1), padding=(1, 1))
            (1): ReLU()
          )
        )
        (1): RDB_Conv(
          (conv): Sequential(
            (0): Conv2d(128, 64, kernel_size=(3, 3), stride=(1, 1), padding=(1, 1))
            (1): ReLU()
          )
        )
        (2): RDB_Conv(
          (conv): Sequential(
            (0): Conv2d(192, 64, kernel_size=(3, 3), stride=(1, 1), padding=(1, 1))
            (1): ReLU()
          )
        )
        (3): RDB_Conv(
          (conv): Sequential(
            (0): Conv2d(256, 64, kernel_size=(3, 3), stride=(1, 1), padding=(1, 1))
            (1): ReLU()
          )
        )
        (4): RDB_Conv(
          (conv): Sequential(
            (0): Conv2d(320, 64, kernel_size=(3, 3), stride=(1, 1), padding=(1, 1))
            (1): ReLU()
          )
        )
        (5): RDB_Conv(
          (conv): Sequential(
            (0): Conv2d(384, 64, kernel_size=(3, 3), stride=(1, 1), padding=(1, 1))
            (1): ReLU()
          )
        )
        (6): RDB_Conv(
          (conv): Sequential(
            (0): Conv2d(448, 64, kernel_size=(3, 3), stride=(1, 1), padding=(1, 1))
            (1): ReLU()
          )
        )
        (7): RDB_Conv(
          (conv): Sequential(
            (0): Conv2d(512, 64, kernel_size=(3, 3), stride=(1, 1), padding=(1, 1))
            (1): ReLU()
          )
        )
      )
      (LFF): Conv2d(576, 64, kernel_size=(1, 1), stride=(1, 1))
    )
    (15): RDB(
      (convs): Sequential(
        (0): RDB_Conv(
          (conv): Sequential(
            (0): Conv2d(64, 64, kernel_size=(3, 3), stride=(1, 1), padding=(1, 1))
            (1): ReLU()
          )
        )
        (1): RDB_Conv(
          (conv): Sequential(
            (0): Conv2d(128, 64, kernel_size=(3, 3), stride=(1, 1), padding=(1, 1))
            (1): ReLU()
          )
        )
        (2): RDB_Conv(
          (conv): Sequential(
            (0): Conv2d(192, 64, kernel_size=(3, 3), stride=(1, 1), padding=(1, 1))
            (1): ReLU()
          )
        )
        (3): RDB_Conv(
          (conv): Sequential(
            (0): Conv2d(256, 64, kernel_size=(3, 3), stride=(1, 1), padding=(1, 1))
            (1): ReLU()
          )
        )
        (4): RDB_Conv(
          (conv): Sequential(
            (0): Conv2d(320, 64, kernel_size=(3, 3), stride=(1, 1), padding=(1, 1))
            (1): ReLU()
          )
        )
        (5): RDB_Conv(
          (conv): Sequential(
            (0): Conv2d(384, 64, kernel_size=(3, 3), stride=(1, 1), padding=(1, 1))
            (1): ReLU()
          )
        )
        (6): RDB_Conv(
          (conv): Sequential(
            (0): Conv2d(448, 64, kernel_size=(3, 3), stride=(1, 1), padding=(1, 1))
            (1): ReLU()
          )
        )
        (7): RDB_Conv(
          (conv): Sequential(
            (0): Conv2d(512, 64, kernel_size=(3, 3), stride=(1, 1), padding=(1, 1))
            (1): ReLU()
          )
        )
      )
      (LFF): Conv2d(576, 64, kernel_size=(1, 1), stride=(1, 1))
    )
  )
  (GFF): Sequential(
    (0): Conv2d(1024, 64, kernel_size=(1, 1), stride=(1, 1))
    (1): Conv2d(64, 64, kernel_size=(3, 3), stride=(1, 1), padding=(1, 1))
  )
  (UPNet): Sequential(
    (0): Conv2d(64, 256, kernel_size=(3, 3), stride=(1, 1), padding=(1, 1))
    (1): PixelShuffle(upscale_factor=2)
    (2): Conv2d(64, 256, kernel_size=(3, 3), stride=(1, 1), padding=(1, 1))
    (3): PixelShuffle(upscale_factor=2)
    (4): Conv2d(64, 3, kernel_size=(3, 3), stride=(1, 1), padding=(1, 1))
  )
)
[Epoch 1]	Learning rate: 1.00e-4
RDNx4 result
RDN(
  (SFENet1): Conv2d(3, 64, kernel_size=(3, 3), stride=(1, 1), padding=(1, 1))
  (SFENet2): Conv2d(64, 64, kernel_size=(3, 3), stride=(1, 1), padding=(1, 1))
  (RDBs): ModuleList(
    (0): RDB(
      (convs): Sequential(
        (0): RDB_Conv(
          (conv): Sequential(
            (0): Conv2d(64, 64, kernel_size=(3, 3), stride=(1, 1), padding=(1, 1))
            (1): ReLU()
          )
        )
        (1): RDB_Conv(
          (conv): Sequential(
            (0): Conv2d(128, 64, kernel_size=(3, 3), stride=(1, 1), padding=(1, 1))
            (1): ReLU()
          )
        )
        (2): RDB_Conv(
          (conv): Sequential(
            (0): Conv2d(192, 64, kernel_size=(3, 3), stride=(1, 1), padding=(1, 1))
            (1): ReLU()
          )
        )
        (3): RDB_Conv(
          (conv): Sequential(
            (0): Conv2d(256, 64, kernel_size=(3, 3), stride=(1, 1), padding=(1, 1))
            (1): ReLU()
          )
        )
        (4): RDB_Conv(
          (conv): Sequential(
            (0): Conv2d(320, 64, kernel_size=(3, 3), stride=(1, 1), padding=(1, 1))
            (1): ReLU()
          )
        )
        (5): RDB_Conv(
          (conv): Sequential(
            (0): Conv2d(384, 64, kernel_size=(3, 3), stride=(1, 1), padding=(1, 1))
            (1): ReLU()
          )
        )
        (6): RDB_Conv(
          (conv): Sequential(
            (0): Conv2d(448, 64, kernel_size=(3, 3), stride=(1, 1), padding=(1, 1))
            (1): ReLU()
          )
        )
        (7): RDB_Conv(
          (conv): Sequential(
            (0): Conv2d(512, 64, kernel_size=(3, 3), stride=(1, 1), padding=(1, 1))
            (1): ReLU()
          )
        )
      )
      (LFF): Conv2d(576, 64, kernel_size=(1, 1), stride=(1, 1))
    )
    (1): RDB(
      (convs): Sequential(
        (0): RDB_Conv(
          (conv): Sequential(
            (0): Conv2d(64, 64, kernel_size=(3, 3), stride=(1, 1), padding=(1, 1))
            (1): ReLU()
          )
        )
        (1): RDB_Conv(
          (conv): Sequential(
            (0): Conv2d(128, 64, kernel_size=(3, 3), stride=(1, 1), padding=(1, 1))
            (1): ReLU()
          )
        )
        (2): RDB_Conv(
          (conv): Sequential(
            (0): Conv2d(192, 64, kernel_size=(3, 3), stride=(1, 1), padding=(1, 1))
            (1): ReLU()
          )
        )
        (3): RDB_Conv(
          (conv): Sequential(
            (0): Conv2d(256, 64, kernel_size=(3, 3), stride=(1, 1), padding=(1, 1))
            (1): ReLU()
          )
        )
        (4): RDB_Conv(
          (conv): Sequential(
            (0): Conv2d(320, 64, kernel_size=(3, 3), stride=(1, 1), padding=(1, 1))
            (1): ReLU()
          )
        )
        (5): RDB_Conv(
          (conv): Sequential(
            (0): Conv2d(384, 64, kernel_size=(3, 3), stride=(1, 1), padding=(1, 1))
            (1): ReLU()
          )
        )
        (6): RDB_Conv(
          (conv): Sequential(
            (0): Conv2d(448, 64, kernel_size=(3, 3), stride=(1, 1), padding=(1, 1))
            (1): ReLU()
          )
        )
        (7): RDB_Conv(
          (conv): Sequential(
            (0): Conv2d(512, 64, kernel_size=(3, 3), stride=(1, 1), padding=(1, 1))
            (1): ReLU()
          )
        )
      )
      (LFF): Conv2d(576, 64, kernel_size=(1, 1), stride=(1, 1))
    )
    (2): RDB(
      (convs): Sequential(
        (0): RDB_Conv(
          (conv): Sequential(
            (0): Conv2d(64, 64, kernel_size=(3, 3), stride=(1, 1), padding=(1, 1))
            (1): ReLU()
          )
        )
        (1): RDB_Conv(
          (conv): Sequential(
            (0): Conv2d(128, 64, kernel_size=(3, 3), stride=(1, 1), padding=(1, 1))
            (1): ReLU()
          )
        )
        (2): RDB_Conv(
          (conv): Sequential(
            (0): Conv2d(192, 64, kernel_size=(3, 3), stride=(1, 1), padding=(1, 1))
            (1): ReLU()
          )
        )
        (3): RDB_Conv(
          (conv): Sequential(
            (0): Conv2d(256, 64, kernel_size=(3, 3), stride=(1, 1), padding=(1, 1))
            (1): ReLU()
          )
        )
        (4): RDB_Conv(
          (conv): Sequential(
            (0): Conv2d(320, 64, kernel_size=(3, 3), stride=(1, 1), padding=(1, 1))
            (1): ReLU()
          )
        )
        (5): RDB_Conv(
          (conv): Sequential(
            (0): Conv2d(384, 64, kernel_size=(3, 3), stride=(1, 1), padding=(1, 1))
            (1): ReLU()
          )
        )
        (6): RDB_Conv(
          (conv): Sequential(
            (0): Conv2d(448, 64, kernel_size=(3, 3), stride=(1, 1), padding=(1, 1))
            (1): ReLU()
          )
        )
        (7): RDB_Conv(
          (conv): Sequential(
            (0): Conv2d(512, 64, kernel_size=(3, 3), stride=(1, 1), padding=(1, 1))
            (1): ReLU()
          )
        )
      )
      (LFF): Conv2d(576, 64, kernel_size=(1, 1), stride=(1, 1))
    )
    (3): RDB(
      (convs): Sequential(
        (0): RDB_Conv(
          (conv): Sequential(
            (0): Conv2d(64, 64, kernel_size=(3, 3), stride=(1, 1), padding=(1, 1))
            (1): ReLU()
          )
        )
        (1): RDB_Conv(
          (conv): Sequential(
            (0): Conv2d(128, 64, kernel_size=(3, 3), stride=(1, 1), padding=(1, 1))
            (1): ReLU()
          )
        )
        (2): RDB_Conv(
          (conv): Sequential(
            (0): Conv2d(192, 64, kernel_size=(3, 3), stride=(1, 1), padding=(1, 1))
            (1): ReLU()
          )
        )
        (3): RDB_Conv(
          (conv): Sequential(
            (0): Conv2d(256, 64, kernel_size=(3, 3), stride=(1, 1), padding=(1, 1))
            (1): ReLU()
          )
        )
        (4): RDB_Conv(
          (conv): Sequential(
            (0): Conv2d(320, 64, kernel_size=(3, 3), stride=(1, 1), padding=(1, 1))
            (1): ReLU()
          )
        )
        (5): RDB_Conv(
          (conv): Sequential(
            (0): Conv2d(384, 64, kernel_size=(3, 3), stride=(1, 1), padding=(1, 1))
            (1): ReLU()
          )
        )
        (6): RDB_Conv(
          (conv): Sequential(
            (0): Conv2d(448, 64, kernel_size=(3, 3), stride=(1, 1), padding=(1, 1))
            (1): ReLU()
          )
        )
        (7): RDB_Conv(
          (conv): Sequential(
            (0): Conv2d(512, 64, kernel_size=(3, 3), stride=(1, 1), padding=(1, 1))
            (1): ReLU()
          )
        )
      )
      (LFF): Conv2d(576, 64, kernel_size=(1, 1), stride=(1, 1))
    )
    (4): RDB(
      (convs): Sequential(
        (0): RDB_Conv(
          (conv): Sequential(
            (0): Conv2d(64, 64, kernel_size=(3, 3), stride=(1, 1), padding=(1, 1))
            (1): ReLU()
          )
        )
        (1): RDB_Conv(
          (conv): Sequential(
            (0): Conv2d(128, 64, kernel_size=(3, 3), stride=(1, 1), padding=(1, 1))
            (1): ReLU()
          )
        )
        (2): RDB_Conv(
          (conv): Sequential(
            (0): Conv2d(192, 64, kernel_size=(3, 3), stride=(1, 1), padding=(1, 1))
            (1): ReLU()
          )
        )
        (3): RDB_Conv(
          (conv): Sequential(
            (0): Conv2d(256, 64, kernel_size=(3, 3), stride=(1, 1), padding=(1, 1))
            (1): ReLU()
          )
        )
        (4): RDB_Conv(
          (conv): Sequential(
            (0): Conv2d(320, 64, kernel_size=(3, 3), stride=(1, 1), padding=(1, 1))
            (1): ReLU()
          )
        )
        (5): RDB_Conv(
          (conv): Sequential(
            (0): Conv2d(384, 64, kernel_size=(3, 3), stride=(1, 1), padding=(1, 1))
            (1): ReLU()
          )
        )
        (6): RDB_Conv(
          (conv): Sequential(
            (0): Conv2d(448, 64, kernel_size=(3, 3), stride=(1, 1), padding=(1, 1))
            (1): ReLU()
          )
        )
        (7): RDB_Conv(
          (conv): Sequential(
            (0): Conv2d(512, 64, kernel_size=(3, 3), stride=(1, 1), padding=(1, 1))
            (1): ReLU()
          )
        )
      )
      (LFF): Conv2d(576, 64, kernel_size=(1, 1), stride=(1, 1))
    )
    (5): RDB(
      (convs): Sequential(
        (0): RDB_Conv(
          (conv): Sequential(
            (0): Conv2d(64, 64, kernel_size=(3, 3), stride=(1, 1), padding=(1, 1))
            (1): ReLU()
          )
        )
        (1): RDB_Conv(
          (conv): Sequential(
            (0): Conv2d(128, 64, kernel_size=(3, 3), stride=(1, 1), padding=(1, 1))
            (1): ReLU()
          )
        )
        (2): RDB_Conv(
          (conv): Sequential(
            (0): Conv2d(192, 64, kernel_size=(3, 3), stride=(1, 1), padding=(1, 1))
            (1): ReLU()
          )
        )
        (3): RDB_Conv(
          (conv): Sequential(
            (0): Conv2d(256, 64, kernel_size=(3, 3), stride=(1, 1), padding=(1, 1))
            (1): ReLU()
          )
        )
        (4): RDB_Conv(
          (conv): Sequential(
            (0): Conv2d(320, 64, kernel_size=(3, 3), stride=(1, 1), padding=(1, 1))
            (1): ReLU()
          )
        )
        (5): RDB_Conv(
          (conv): Sequential(
            (0): Conv2d(384, 64, kernel_size=(3, 3), stride=(1, 1), padding=(1, 1))
            (1): ReLU()
          )
        )
        (6): RDB_Conv(
          (conv): Sequential(
            (0): Conv2d(448, 64, kernel_size=(3, 3), stride=(1, 1), padding=(1, 1))
            (1): ReLU()
          )
        )
        (7): RDB_Conv(
          (conv): Sequential(
            (0): Conv2d(512, 64, kernel_size=(3, 3), stride=(1, 1), padding=(1, 1))
            (1): ReLU()
          )
        )
      )
      (LFF): Conv2d(576, 64, kernel_size=(1, 1), stride=(1, 1))
    )
    (6): RDB(
      (convs): Sequential(
        (0): RDB_Conv(
          (conv): Sequential(
            (0): Conv2d(64, 64, kernel_size=(3, 3), stride=(1, 1), padding=(1, 1))
            (1): ReLU()
          )
        )
        (1): RDB_Conv(
          (conv): Sequential(
            (0): Conv2d(128, 64, kernel_size=(3, 3), stride=(1, 1), padding=(1, 1))
            (1): ReLU()
          )
        )
        (2): RDB_Conv(
          (conv): Sequential(
            (0): Conv2d(192, 64, kernel_size=(3, 3), stride=(1, 1), padding=(1, 1))
            (1): ReLU()
          )
        )
        (3): RDB_Conv(
          (conv): Sequential(
            (0): Conv2d(256, 64, kernel_size=(3, 3), stride=(1, 1), padding=(1, 1))
            (1): ReLU()
          )
        )
        (4): RDB_Conv(
          (conv): Sequential(
            (0): Conv2d(320, 64, kernel_size=(3, 3), stride=(1, 1), padding=(1, 1))
            (1): ReLU()
          )
        )
        (5): RDB_Conv(
          (conv): Sequential(
            (0): Conv2d(384, 64, kernel_size=(3, 3), stride=(1, 1), padding=(1, 1))
            (1): ReLU()
          )
        )
        (6): RDB_Conv(
          (conv): Sequential(
            (0): Conv2d(448, 64, kernel_size=(3, 3), stride=(1, 1), padding=(1, 1))
            (1): ReLU()
          )
        )
        (7): RDB_Conv(
          (conv): Sequential(
            (0): Conv2d(512, 64, kernel_size=(3, 3), stride=(1, 1), padding=(1, 1))
            (1): ReLU()
          )
        )
      )
      (LFF): Conv2d(576, 64, kernel_size=(1, 1), stride=(1, 1))
    )
    (7): RDB(
      (convs): Sequential(
        (0): RDB_Conv(
          (conv): Sequential(
            (0): Conv2d(64, 64, kernel_size=(3, 3), stride=(1, 1), padding=(1, 1))
            (1): ReLU()
          )
        )
        (1): RDB_Conv(
          (conv): Sequential(
            (0): Conv2d(128, 64, kernel_size=(3, 3), stride=(1, 1), padding=(1, 1))
            (1): ReLU()
          )
        )
        (2): RDB_Conv(
          (conv): Sequential(
            (0): Conv2d(192, 64, kernel_size=(3, 3), stride=(1, 1), padding=(1, 1))
            (1): ReLU()
          )
        )
        (3): RDB_Conv(
          (conv): Sequential(
            (0): Conv2d(256, 64, kernel_size=(3, 3), stride=(1, 1), padding=(1, 1))
            (1): ReLU()
          )
        )
        (4): RDB_Conv(
          (conv): Sequential(
            (0): Conv2d(320, 64, kernel_size=(3, 3), stride=(1, 1), padding=(1, 1))
            (1): ReLU()
          )
        )
        (5): RDB_Conv(
          (conv): Sequential(
            (0): Conv2d(384, 64, kernel_size=(3, 3), stride=(1, 1), padding=(1, 1))
            (1): ReLU()
          )
        )
        (6): RDB_Conv(
          (conv): Sequential(
            (0): Conv2d(448, 64, kernel_size=(3, 3), stride=(1, 1), padding=(1, 1))
            (1): ReLU()
          )
        )
        (7): RDB_Conv(
          (conv): Sequential(
            (0): Conv2d(512, 64, kernel_size=(3, 3), stride=(1, 1), padding=(1, 1))
            (1): ReLU()
          )
        )
      )
      (LFF): Conv2d(576, 64, kernel_size=(1, 1), stride=(1, 1))
    )
    (8): RDB(
      (convs): Sequential(
        (0): RDB_Conv(
          (conv): Sequential(
            (0): Conv2d(64, 64, kernel_size=(3, 3), stride=(1, 1), padding=(1, 1))
            (1): ReLU()
          )
        )
        (1): RDB_Conv(
          (conv): Sequential(
            (0): Conv2d(128, 64, kernel_size=(3, 3), stride=(1, 1), padding=(1, 1))
            (1): ReLU()
          )
        )
        (2): RDB_Conv(
          (conv): Sequential(
            (0): Conv2d(192, 64, kernel_size=(3, 3), stride=(1, 1), padding=(1, 1))
            (1): ReLU()
          )
        )
        (3): RDB_Conv(
          (conv): Sequential(
            (0): Conv2d(256, 64, kernel_size=(3, 3), stride=(1, 1), padding=(1, 1))
            (1): ReLU()
          )
        )
        (4): RDB_Conv(
          (conv): Sequential(
            (0): Conv2d(320, 64, kernel_size=(3, 3), stride=(1, 1), padding=(1, 1))
            (1): ReLU()
          )
        )
        (5): RDB_Conv(
          (conv): Sequential(
            (0): Conv2d(384, 64, kernel_size=(3, 3), stride=(1, 1), padding=(1, 1))
            (1): ReLU()
          )
        )
        (6): RDB_Conv(
          (conv): Sequential(
            (0): Conv2d(448, 64, kernel_size=(3, 3), stride=(1, 1), padding=(1, 1))
            (1): ReLU()
          )
        )
        (7): RDB_Conv(
          (conv): Sequential(
            (0): Conv2d(512, 64, kernel_size=(3, 3), stride=(1, 1), padding=(1, 1))
            (1): ReLU()
          )
        )
      )
      (LFF): Conv2d(576, 64, kernel_size=(1, 1), stride=(1, 1))
    )
    (9): RDB(
      (convs): Sequential(
        (0): RDB_Conv(
          (conv): Sequential(
            (0): Conv2d(64, 64, kernel_size=(3, 3), stride=(1, 1), padding=(1, 1))
            (1): ReLU()
          )
        )
        (1): RDB_Conv(
          (conv): Sequential(
            (0): Conv2d(128, 64, kernel_size=(3, 3), stride=(1, 1), padding=(1, 1))
            (1): ReLU()
          )
        )
        (2): RDB_Conv(
          (conv): Sequential(
            (0): Conv2d(192, 64, kernel_size=(3, 3), stride=(1, 1), padding=(1, 1))
            (1): ReLU()
          )
        )
        (3): RDB_Conv(
          (conv): Sequential(
            (0): Conv2d(256, 64, kernel_size=(3, 3), stride=(1, 1), padding=(1, 1))
            (1): ReLU()
          )
        )
        (4): RDB_Conv(
          (conv): Sequential(
            (0): Conv2d(320, 64, kernel_size=(3, 3), stride=(1, 1), padding=(1, 1))
            (1): ReLU()
          )
        )
        (5): RDB_Conv(
          (conv): Sequential(
            (0): Conv2d(384, 64, kernel_size=(3, 3), stride=(1, 1), padding=(1, 1))
            (1): ReLU()
          )
        )
        (6): RDB_Conv(
          (conv): Sequential(
            (0): Conv2d(448, 64, kernel_size=(3, 3), stride=(1, 1), padding=(1, 1))
            (1): ReLU()
          )
        )
        (7): RDB_Conv(
          (conv): Sequential(
            (0): Conv2d(512, 64, kernel_size=(3, 3), stride=(1, 1), padding=(1, 1))
            (1): ReLU()
          )
        )
      )
      (LFF): Conv2d(576, 64, kernel_size=(1, 1), stride=(1, 1))
    )
    (10): RDB(
      (convs): Sequential(
        (0): RDB_Conv(
          (conv): Sequential(
            (0): Conv2d(64, 64, kernel_size=(3, 3), stride=(1, 1), padding=(1, 1))
            (1): ReLU()
          )
        )
        (1): RDB_Conv(
          (conv): Sequential(
            (0): Conv2d(128, 64, kernel_size=(3, 3), stride=(1, 1), padding=(1, 1))
            (1): ReLU()
          )
        )
        (2): RDB_Conv(
          (conv): Sequential(
            (0): Conv2d(192, 64, kernel_size=(3, 3), stride=(1, 1), padding=(1, 1))
            (1): ReLU()
          )
        )
        (3): RDB_Conv(
          (conv): Sequential(
            (0): Conv2d(256, 64, kernel_size=(3, 3), stride=(1, 1), padding=(1, 1))
            (1): ReLU()
          )
        )
        (4): RDB_Conv(
          (conv): Sequential(
            (0): Conv2d(320, 64, kernel_size=(3, 3), stride=(1, 1), padding=(1, 1))
            (1): ReLU()
          )
        )
        (5): RDB_Conv(
          (conv): Sequential(
            (0): Conv2d(384, 64, kernel_size=(3, 3), stride=(1, 1), padding=(1, 1))
            (1): ReLU()
          )
        )
        (6): RDB_Conv(
          (conv): Sequential(
            (0): Conv2d(448, 64, kernel_size=(3, 3), stride=(1, 1), padding=(1, 1))
            (1): ReLU()
          )
        )
        (7): RDB_Conv(
          (conv): Sequential(
            (0): Conv2d(512, 64, kernel_size=(3, 3), stride=(1, 1), padding=(1, 1))
            (1): ReLU()
          )
        )
      )
      (LFF): Conv2d(576, 64, kernel_size=(1, 1), stride=(1, 1))
    )
    (11): RDB(
      (convs): Sequential(
        (0): RDB_Conv(
          (conv): Sequential(
            (0): Conv2d(64, 64, kernel_size=(3, 3), stride=(1, 1), padding=(1, 1))
            (1): ReLU()
          )
        )
        (1): RDB_Conv(
          (conv): Sequential(
            (0): Conv2d(128, 64, kernel_size=(3, 3), stride=(1, 1), padding=(1, 1))
            (1): ReLU()
          )
        )
        (2): RDB_Conv(
          (conv): Sequential(
            (0): Conv2d(192, 64, kernel_size=(3, 3), stride=(1, 1), padding=(1, 1))
            (1): ReLU()
          )
        )
        (3): RDB_Conv(
          (conv): Sequential(
            (0): Conv2d(256, 64, kernel_size=(3, 3), stride=(1, 1), padding=(1, 1))
            (1): ReLU()
          )
        )
        (4): RDB_Conv(
          (conv): Sequential(
            (0): Conv2d(320, 64, kernel_size=(3, 3), stride=(1, 1), padding=(1, 1))
            (1): ReLU()
          )
        )
        (5): RDB_Conv(
          (conv): Sequential(
            (0): Conv2d(384, 64, kernel_size=(3, 3), stride=(1, 1), padding=(1, 1))
            (1): ReLU()
          )
        )
        (6): RDB_Conv(
          (conv): Sequential(
            (0): Conv2d(448, 64, kernel_size=(3, 3), stride=(1, 1), padding=(1, 1))
            (1): ReLU()
          )
        )
        (7): RDB_Conv(
          (conv): Sequential(
            (0): Conv2d(512, 64, kernel_size=(3, 3), stride=(1, 1), padding=(1, 1))
            (1): ReLU()
          )
        )
      )
      (LFF): Conv2d(576, 64, kernel_size=(1, 1), stride=(1, 1))
    )
    (12): RDB(
      (convs): Sequential(
        (0): RDB_Conv(
          (conv): Sequential(
            (0): Conv2d(64, 64, kernel_size=(3, 3), stride=(1, 1), padding=(1, 1))
            (1): ReLU()
          )
        )
        (1): RDB_Conv(
          (conv): Sequential(
            (0): Conv2d(128, 64, kernel_size=(3, 3), stride=(1, 1), padding=(1, 1))
            (1): ReLU()
          )
        )
        (2): RDB_Conv(
          (conv): Sequential(
            (0): Conv2d(192, 64, kernel_size=(3, 3), stride=(1, 1), padding=(1, 1))
            (1): ReLU()
          )
        )
        (3): RDB_Conv(
          (conv): Sequential(
            (0): Conv2d(256, 64, kernel_size=(3, 3), stride=(1, 1), padding=(1, 1))
            (1): ReLU()
          )
        )
        (4): RDB_Conv(
          (conv): Sequential(
            (0): Conv2d(320, 64, kernel_size=(3, 3), stride=(1, 1), padding=(1, 1))
            (1): ReLU()
          )
        )
        (5): RDB_Conv(
          (conv): Sequential(
            (0): Conv2d(384, 64, kernel_size=(3, 3), stride=(1, 1), padding=(1, 1))
            (1): ReLU()
          )
        )
        (6): RDB_Conv(
          (conv): Sequential(
            (0): Conv2d(448, 64, kernel_size=(3, 3), stride=(1, 1), padding=(1, 1))
            (1): ReLU()
          )
        )
        (7): RDB_Conv(
          (conv): Sequential(
            (0): Conv2d(512, 64, kernel_size=(3, 3), stride=(1, 1), padding=(1, 1))
            (1): ReLU()
          )
        )
      )
      (LFF): Conv2d(576, 64, kernel_size=(1, 1), stride=(1, 1))
    )
    (13): RDB(
      (convs): Sequential(
        (0): RDB_Conv(
          (conv): Sequential(
            (0): Conv2d(64, 64, kernel_size=(3, 3), stride=(1, 1), padding=(1, 1))
            (1): ReLU()
          )
        )
        (1): RDB_Conv(
          (conv): Sequential(
            (0): Conv2d(128, 64, kernel_size=(3, 3), stride=(1, 1), padding=(1, 1))
            (1): ReLU()
          )
        )
        (2): RDB_Conv(
          (conv): Sequential(
            (0): Conv2d(192, 64, kernel_size=(3, 3), stride=(1, 1), padding=(1, 1))
            (1): ReLU()
          )
        )
        (3): RDB_Conv(
          (conv): Sequential(
            (0): Conv2d(256, 64, kernel_size=(3, 3), stride=(1, 1), padding=(1, 1))
            (1): ReLU()
          )
        )
        (4): RDB_Conv(
          (conv): Sequential(
            (0): Conv2d(320, 64, kernel_size=(3, 3), stride=(1, 1), padding=(1, 1))
            (1): ReLU()
          )
        )
        (5): RDB_Conv(
          (conv): Sequential(
            (0): Conv2d(384, 64, kernel_size=(3, 3), stride=(1, 1), padding=(1, 1))
            (1): ReLU()
          )
        )
        (6): RDB_Conv(
          (conv): Sequential(
            (0): Conv2d(448, 64, kernel_size=(3, 3), stride=(1, 1), padding=(1, 1))
            (1): ReLU()
          )
        )
        (7): RDB_Conv(
          (conv): Sequential(
            (0): Conv2d(512, 64, kernel_size=(3, 3), stride=(1, 1), padding=(1, 1))
            (1): ReLU()
          )
        )
      )
      (LFF): Conv2d(576, 64, kernel_size=(1, 1), stride=(1, 1))
    )
    (14): RDB(
      (convs): Sequential(
        (0): RDB_Conv(
          (conv): Sequential(
            (0): Conv2d(64, 64, kernel_size=(3, 3), stride=(1, 1), padding=(1, 1))
            (1): ReLU()
          )
        )
        (1): RDB_Conv(
          (conv): Sequential(
            (0): Conv2d(128, 64, kernel_size=(3, 3), stride=(1, 1), padding=(1, 1))
            (1): ReLU()
          )
        )
        (2): RDB_Conv(
          (conv): Sequential(
            (0): Conv2d(192, 64, kernel_size=(3, 3), stride=(1, 1), padding=(1, 1))
            (1): ReLU()
          )
        )
        (3): RDB_Conv(
          (conv): Sequential(
            (0): Conv2d(256, 64, kernel_size=(3, 3), stride=(1, 1), padding=(1, 1))
            (1): ReLU()
          )
        )
        (4): RDB_Conv(
          (conv): Sequential(
            (0): Conv2d(320, 64, kernel_size=(3, 3), stride=(1, 1), padding=(1, 1))
            (1): ReLU()
          )
        )
        (5): RDB_Conv(
          (conv): Sequential(
            (0): Conv2d(384, 64, kernel_size=(3, 3), stride=(1, 1), padding=(1, 1))
            (1): ReLU()
          )
        )
        (6): RDB_Conv(
          (conv): Sequential(
            (0): Conv2d(448, 64, kernel_size=(3, 3), stride=(1, 1), padding=(1, 1))
            (1): ReLU()
          )
        )
        (7): RDB_Conv(
          (conv): Sequential(
            (0): Conv2d(512, 64, kernel_size=(3, 3), stride=(1, 1), padding=(1, 1))
            (1): ReLU()
          )
        )
      )
      (LFF): Conv2d(576, 64, kernel_size=(1, 1), stride=(1, 1))
    )
    (15): RDB(
      (convs): Sequential(
        (0): RDB_Conv(
          (conv): Sequential(
            (0): Conv2d(64, 64, kernel_size=(3, 3), stride=(1, 1), padding=(1, 1))
            (1): ReLU()
          )
        )
        (1): RDB_Conv(
          (conv): Sequential(
            (0): Conv2d(128, 64, kernel_size=(3, 3), stride=(1, 1), padding=(1, 1))
            (1): ReLU()
          )
        )
        (2): RDB_Conv(
          (conv): Sequential(
            (0): Conv2d(192, 64, kernel_size=(3, 3), stride=(1, 1), padding=(1, 1))
            (1): ReLU()
          )
        )
        (3): RDB_Conv(
          (conv): Sequential(
            (0): Conv2d(256, 64, kernel_size=(3, 3), stride=(1, 1), padding=(1, 1))
            (1): ReLU()
          )
        )
        (4): RDB_Conv(
          (conv): Sequential(
            (0): Conv2d(320, 64, kernel_size=(3, 3), stride=(1, 1), padding=(1, 1))
            (1): ReLU()
          )
        )
        (5): RDB_Conv(
          (conv): Sequential(
            (0): Conv2d(384, 64, kernel_size=(3, 3), stride=(1, 1), padding=(1, 1))
            (1): ReLU()
          )
        )
        (6): RDB_Conv(
          (conv): Sequential(
            (0): Conv2d(448, 64, kernel_size=(3, 3), stride=(1, 1), padding=(1, 1))
            (1): ReLU()
          )
        )
        (7): RDB_Conv(
          (conv): Sequential(
            (0): Conv2d(512, 64, kernel_size=(3, 3), stride=(1, 1), padding=(1, 1))
            (1): ReLU()
          )
        )
      )
      (LFF): Conv2d(576, 64, kernel_size=(1, 1), stride=(1, 1))
    )
  )
  (GFF): Sequential(
    (0): Conv2d(1024, 64, kernel_size=(1, 1), stride=(1, 1))
    (1): Conv2d(64, 64, kernel_size=(3, 3), stride=(1, 1), padding=(1, 1))
  )
  (UPNet): Sequential(
    (0): Conv2d(64, 256, kernel_size=(3, 3), stride=(1, 1), padding=(1, 1))
    (1): PixelShuffle(upscale_factor=2)
    (2): Conv2d(64, 256, kernel_size=(3, 3), stride=(1, 1), padding=(1, 1))
    (3): PixelShuffle(upscale_factor=2)
    (4): Conv2d(64, 3, kernel_size=(3, 3), stride=(1, 1), padding=(1, 1))
  )
)
[Epoch 1]	Learning rate: 1.00e-4
[800/7800]	[L1: 33.3085]	94.9+3.4s
[1600/7800]	[L1: 29.0165]	96.5+0.1s
[2400/7800]	[L1: 27.4159]	96.4+0.1s
[3200/7800]	[L1: 26.7004]	96.4+0.1s
[4000/7800]	[L1: 26.0299]	96.3+0.1s
[4800/7800]	[L1: 25.5000]	96.3+0.1s
[5600/7800]	[L1: 25.1061]	96.3+0.1s
[6400/7800]	[L1: 24.7074]	96.3+0.1s
[7200/7800]	[L1: 24.5116]	96.3+0.1s
…
