srresnet 8X model
_NetG(
  (conv_input): Conv2d(3, 64, kernel_size=(9, 9), stride=(1, 1), padding=(4, 4), bias=False)
  (relu): LeakyReLU(negative_slope=0.2, inplace)
  (residual): Sequential(
    (0): _Residual_Block(
      (conv1): Conv2d(64, 64, kernel_size=(3, 3), stride=(1, 1), padding=(1, 1), bias=False)
      (in1): InstanceNorm2d(64, eps=1e-05, momentum=0.1, affine=True, track_running_stats=False)
      (relu): LeakyReLU(negative_slope=0.2, inplace)
      (conv2): Conv2d(64, 64, kernel_size=(3, 3), stride=(1, 1), padding=(1, 1), bias=False)
      (in2): InstanceNorm2d(64, eps=1e-05, momentum=0.1, affine=True, track_running_stats=False)
    )
    (1): _Residual_Block(
      (conv1): Conv2d(64, 64, kernel_size=(3, 3), stride=(1, 1), padding=(1, 1), bias=False)
      (in1): InstanceNorm2d(64, eps=1e-05, momentum=0.1, affine=True, track_running_stats=False)
      (relu): LeakyReLU(negative_slope=0.2, inplace)
      (conv2): Conv2d(64, 64, kernel_size=(3, 3), stride=(1, 1), padding=(1, 1), bias=False)
      (in2): InstanceNorm2d(64, eps=1e-05, momentum=0.1, affine=True, track_running_stats=False)
    )
    (2): _Residual_Block(
      (conv1): Conv2d(64, 64, kernel_size=(3, 3), stride=(1, 1), padding=(1, 1), bias=False)
      (in1): InstanceNorm2d(64, eps=1e-05, momentum=0.1, affine=True, track_running_stats=False)
      (relu): LeakyReLU(negative_slope=0.2, inplace)
      (conv2): Conv2d(64, 64, kernel_size=(3, 3), stride=(1, 1), padding=(1, 1), bias=False)
      (in2): InstanceNorm2d(64, eps=1e-05, momentum=0.1, affine=True, track_running_stats=False)
    )
    (3): _Residual_Block(
      (conv1): Conv2d(64, 64, kernel_size=(3, 3), stride=(1, 1), padding=(1, 1), bias=False)
      (in1): InstanceNorm2d(64, eps=1e-05, momentum=0.1, affine=True, track_running_stats=False)
      (relu): LeakyReLU(negative_slope=0.2, inplace)
      (conv2): Conv2d(64, 64, kernel_size=(3, 3), stride=(1, 1), padding=(1, 1), bias=False)
      (in2): InstanceNorm2d(64, eps=1e-05, momentum=0.1, affine=True, track_running_stats=False)
    )
    (4): _Residual_Block(
      (conv1): Conv2d(64, 64, kernel_size=(3, 3), stride=(1, 1), padding=(1, 1), bias=False)
      (in1): InstanceNorm2d(64, eps=1e-05, momentum=0.1, affine=True, track_running_stats=False)
      (relu): LeakyReLU(negative_slope=0.2, inplace)
      (conv2): Conv2d(64, 64, kernel_size=(3, 3), stride=(1, 1), padding=(1, 1), bias=False)
      (in2): InstanceNorm2d(64, eps=1e-05, momentum=0.1, affine=True, track_running_stats=False)
    )
    (5): _Residual_Block(
      (conv1): Conv2d(64, 64, kernel_size=(3, 3), stride=(1, 1), padding=(1, 1), bias=False)
      (in1): InstanceNorm2d(64, eps=1e-05, momentum=0.1, affine=True, track_running_stats=False)
      (relu): LeakyReLU(negative_slope=0.2, inplace)
      (conv2): Conv2d(64, 64, kernel_size=(3, 3), stride=(1, 1), padding=(1, 1), bias=False)
      (in2): InstanceNorm2d(64, eps=1e-05, momentum=0.1, affine=True, track_running_stats=False)
    )
    (6): _Residual_Block(
      (conv1): Conv2d(64, 64, kernel_size=(3, 3), stride=(1, 1), padding=(1, 1), bias=False)
      (in1): InstanceNorm2d(64, eps=1e-05, momentum=0.1, affine=True, track_running_stats=False)
      (relu): LeakyReLU(negative_slope=0.2, inplace)
      (conv2): Conv2d(64, 64, kernel_size=(3, 3), stride=(1, 1), padding=(1, 1), bias=False)
      (in2): InstanceNorm2d(64, eps=1e-05, momentum=0.1, affine=True, track_running_stats=False)
    )
    (7): _Residual_Block(
      (conv1): Conv2d(64, 64, kernel_size=(3, 3), stride=(1, 1), padding=(1, 1), bias=False)
      (in1): InstanceNorm2d(64, eps=1e-05, momentum=0.1, affine=True, track_running_stats=False)
      (relu): LeakyReLU(negative_slope=0.2, inplace)
      (conv2): Conv2d(64, 64, kernel_size=(3, 3), stride=(1, 1), padding=(1, 1), bias=False)
      (in2): InstanceNorm2d(64, eps=1e-05, momentum=0.1, affine=True, track_running_stats=False)
    )
    (8): _Residual_Block(
      (conv1): Conv2d(64, 64, kernel_size=(3, 3), stride=(1, 1), padding=(1, 1), bias=False)
      (in1): InstanceNorm2d(64, eps=1e-05, momentum=0.1, affine=True, track_running_stats=False)
      (relu): LeakyReLU(negative_slope=0.2, inplace)
      (conv2): Conv2d(64, 64, kernel_size=(3, 3), stride=(1, 1), padding=(1, 1), bias=False)
      (in2): InstanceNorm2d(64, eps=1e-05, momentum=0.1, affine=True, track_running_stats=False)
    )
    (9): _Residual_Block(
      (conv1): Conv2d(64, 64, kernel_size=(3, 3), stride=(1, 1), padding=(1, 1), bias=False)
      (in1): InstanceNorm2d(64, eps=1e-05, momentum=0.1, affine=True, track_running_stats=False)
      (relu): LeakyReLU(negative_slope=0.2, inplace)
      (conv2): Conv2d(64, 64, kernel_size=(3, 3), stride=(1, 1), padding=(1, 1), bias=False)
      (in2): InstanceNorm2d(64, eps=1e-05, momentum=0.1, affine=True, track_running_stats=False)
    )
    (10): _Residual_Block(
      (conv1): Conv2d(64, 64, kernel_size=(3, 3), stride=(1, 1), padding=(1, 1), bias=False)
      (in1): InstanceNorm2d(64, eps=1e-05, momentum=0.1, affine=True, track_running_stats=False)
      (relu): LeakyReLU(negative_slope=0.2, inplace)
      (conv2): Conv2d(64, 64, kernel_size=(3, 3), stride=(1, 1), padding=(1, 1), bias=False)
      (in2): InstanceNorm2d(64, eps=1e-05, momentum=0.1, affine=True, track_running_stats=False)
    )
    (11): _Residual_Block(
      (conv1): Conv2d(64, 64, kernel_size=(3, 3), stride=(1, 1), padding=(1, 1), bias=False)
      (in1): InstanceNorm2d(64, eps=1e-05, momentum=0.1, affine=True, track_running_stats=False)
      (relu): LeakyReLU(negative_slope=0.2, inplace)
      (conv2): Conv2d(64, 64, kernel_size=(3, 3), stride=(1, 1), padding=(1, 1), bias=False)
      (in2): InstanceNorm2d(64, eps=1e-05, momentum=0.1, affine=True, track_running_stats=False)
    )
    (12): _Residual_Block(
      (conv1): Conv2d(64, 64, kernel_size=(3, 3), stride=(1, 1), padding=(1, 1), bias=False)
      (in1): InstanceNorm2d(64, eps=1e-05, momentum=0.1, affine=True, track_running_stats=False)
      (relu): LeakyReLU(negative_slope=0.2, inplace)
      (conv2): Conv2d(64, 64, kernel_size=(3, 3), stride=(1, 1), padding=(1, 1), bias=False)
      (in2): InstanceNorm2d(64, eps=1e-05, momentum=0.1, affine=True, track_running_stats=False)
    )
    (13): _Residual_Block(
      (conv1): Conv2d(64, 64, kernel_size=(3, 3), stride=(1, 1), padding=(1, 1), bias=False)
      (in1): InstanceNorm2d(64, eps=1e-05, momentum=0.1, affine=True, track_running_stats=False)
      (relu): LeakyReLU(negative_slope=0.2, inplace)
      (conv2): Conv2d(64, 64, kernel_size=(3, 3), stride=(1, 1), padding=(1, 1), bias=False)
      (in2): InstanceNorm2d(64, eps=1e-05, momentum=0.1, affine=True, track_running_stats=False)
    )
    (14): _Residual_Block(
      (conv1): Conv2d(64, 64, kernel_size=(3, 3), stride=(1, 1), padding=(1, 1), bias=False)
      (in1): InstanceNorm2d(64, eps=1e-05, momentum=0.1, affine=True, track_running_stats=False)
      (relu): LeakyReLU(negative_slope=0.2, inplace)
      (conv2): Conv2d(64, 64, kernel_size=(3, 3), stride=(1, 1), padding=(1, 1), bias=False)
      (in2): InstanceNorm2d(64, eps=1e-05, momentum=0.1, affine=True, track_running_stats=False)
    )
    (15): _Residual_Block(
      (conv1): Conv2d(64, 64, kernel_size=(3, 3), stride=(1, 1), padding=(1, 1), bias=False)
      (in1): InstanceNorm2d(64, eps=1e-05, momentum=0.1, affine=True, track_running_stats=False)
      (relu): LeakyReLU(negative_slope=0.2, inplace)
      (conv2): Conv2d(64, 64, kernel_size=(3, 3), stride=(1, 1), padding=(1, 1), bias=False)
      (in2): InstanceNorm2d(64, eps=1e-05, momentum=0.1, affine=True, track_running_stats=False)
    )
  )
  (conv_mid): Conv2d(64, 64, kernel_size=(3, 3), stride=(1, 1), padding=(1, 1), bias=False)
  (bn_mid): InstanceNorm2d(64, eps=1e-05, momentum=0.1, affine=True, track_running_stats=False)
  (upscale): Upsampler(
    (0): Conv2d(64, 256, kernel_size=(3, 3), stride=(1, 1), padding=(1, 1))
    (1): PixelShuffle(upscale_factor=2)
    (2): Conv2d(64, 256, kernel_size=(3, 3), stride=(1, 1), padding=(1, 1))
    (3): PixelShuffle(upscale_factor=2)
    (4): Conv2d(64, 256, kernel_size=(3, 3), stride=(1, 1), padding=(1, 1))
    (5): PixelShuffle(upscale_factor=2)
  )
  (conv_output): Conv2d(64, 3, kernel_size=(9, 9), stride=(1, 1), padding=(4, 4), bias=False)
)
[Epoch 1]	Learning rate: 1.00e-4
[1600/15906]	[L1: 36.3836]	13.8+128.6s
[3200/15906]	[L1: 32.1192]	13.4+5.0s
[4800/15906]	[L1: 29.9152]	13.9+0.3s
[6400/15906]	[L1: 28.8880]	14.0+0.3s
[8000/15906]	[L1: 28.2255]	13.9+0.3s
[9600/15906]	[L1: 27.8783]	14.0+0.3s
[11200/15906]	[L1: 27.4612]	14.4+0.4s
[12800/15906]	[L1: 27.0865]	14.3+0.3s
…
