edsr baseline with self-supervised auxiliary task
EDSR_Zoom(
  (sub_mean): MeanShift(3, 3, kernel_size=(1, 1), stride=(1, 1))
  (add_mean): MeanShift(3, 3, kernel_size=(1, 1), stride=(1, 1))
  (model_ssl): EDSR_SSL(
    (sub_mean): MeanShift(3, 3, kernel_size=(1, 1), stride=(1, 1))
    (add_mean): MeanShift(3, 3, kernel_size=(1, 1), stride=(1, 1))
    (head): Sequential(
      (0): Conv2d(3, 64, kernel_size=(3, 3), stride=(1, 1), padding=(1, 1))
    )
    (body): Sequential(
      (0): ResBlock(
        (body): Sequential(
          (0): Conv2d(64, 64, kernel_size=(3, 3), stride=(1, 1), padding=(1, 1))
          (1): ReLU(inplace)
          (2): Conv2d(64, 64, kernel_size=(3, 3), stride=(1, 1), padding=(1, 1))
        )
      )
      (1): ResBlock(
        (body): Sequential(
          (0): Conv2d(64, 64, kernel_size=(3, 3), stride=(1, 1), padding=(1, 1))
          (1): ReLU(inplace)
          (2): Conv2d(64, 64, kernel_size=(3, 3), stride=(1, 1), padding=(1, 1))
        )
      )
      (2): ResBlock(
        (body): Sequential(
          (0): Conv2d(64, 64, kernel_size=(3, 3), stride=(1, 1), padding=(1, 1))
          (1): ReLU(inplace)
          (2): Conv2d(64, 64, kernel_size=(3, 3), stride=(1, 1), padding=(1, 1))
        )
      )
      (3): ResBlock(
        (body): Sequential(
          (0): Conv2d(64, 64, kernel_size=(3, 3), stride=(1, 1), padding=(1, 1))
          (1): ReLU(inplace)
          (2): Conv2d(64, 64, kernel_size=(3, 3), stride=(1, 1), padding=(1, 1))
        )
      )
      (4): ResBlock(
        (body): Sequential(
          (0): Conv2d(64, 64, kernel_size=(3, 3), stride=(1, 1), padding=(1, 1))
          (1): ReLU(inplace)
          (2): Conv2d(64, 64, kernel_size=(3, 3), stride=(1, 1), padding=(1, 1))
        )
      )
      (5): ResBlock(
        (body): Sequential(
          (0): Conv2d(64, 64, kernel_size=(3, 3), stride=(1, 1), padding=(1, 1))
          (1): ReLU(inplace)
          (2): Conv2d(64, 64, kernel_size=(3, 3), stride=(1, 1), padding=(1, 1))
        )
      )
      (6): ResBlock(
        (body): Sequential(
          (0): Conv2d(64, 64, kernel_size=(3, 3), stride=(1, 1), padding=(1, 1))
          (1): ReLU(inplace)
          (2): Conv2d(64, 64, kernel_size=(3, 3), stride=(1, 1), padding=(1, 1))
        )
      )
      (7): ResBlock(
        (body): Sequential(
          (0): Conv2d(64, 64, kernel_size=(3, 3), stride=(1, 1), padding=(1, 1))
          (1): ReLU(inplace)
          (2): Conv2d(64, 64, kernel_size=(3, 3), stride=(1, 1), padding=(1, 1))
        )
      )
      (8): ResBlock(
        (body): Sequential(
          (0): Conv2d(64, 64, kernel_size=(3, 3), stride=(1, 1), padding=(1, 1))
          (1): ReLU(inplace)
          (2): Conv2d(64, 64, kernel_size=(3, 3), stride=(1, 1), padding=(1, 1))
        )
      )
      (9): ResBlock(
        (body): Sequential(
          (0): Conv2d(64, 64, kernel_size=(3, 3), stride=(1, 1), padding=(1, 1))
          (1): ReLU(inplace)
          (2): Conv2d(64, 64, kernel_size=(3, 3), stride=(1, 1), padding=(1, 1))
        )
      )
      (10): ResBlock(
        (body): Sequential(
          (0): Conv2d(64, 64, kernel_size=(3, 3), stride=(1, 1), padding=(1, 1))
          (1): ReLU(inplace)
          (2): Conv2d(64, 64, kernel_size=(3, 3), stride=(1, 1), padding=(1, 1))
        )
      )
      (11): ResBlock(
        (body): Sequential(
          (0): Conv2d(64, 64, kernel_size=(3, 3), stride=(1, 1), padding=(1, 1))
          (1): ReLU(inplace)
          (2): Conv2d(64, 64, kernel_size=(3, 3), stride=(1, 1), padding=(1, 1))
        )
      )
      (12): ResBlock(
        (body): Sequential(
          (0): Conv2d(64, 64, kernel_size=(3, 3), stride=(1, 1), padding=(1, 1))
          (1): ReLU(inplace)
          (2): Conv2d(64, 64, kernel_size=(3, 3), stride=(1, 1), padding=(1, 1))
        )
      )
      (13): ResBlock(
        (body): Sequential(
          (0): Conv2d(64, 64, kernel_size=(3, 3), stride=(1, 1), padding=(1, 1))
          (1): ReLU(inplace)
          (2): Conv2d(64, 64, kernel_size=(3, 3), stride=(1, 1), padding=(1, 1))
        )
      )
      (14): ResBlock(
        (body): Sequential(
          (0): Conv2d(64, 64, kernel_size=(3, 3), stride=(1, 1), padding=(1, 1))
          (1): ReLU(inplace)
          (2): Conv2d(64, 64, kernel_size=(3, 3), stride=(1, 1), padding=(1, 1))
        )
      )
      (15): ResBlock(
        (body): Sequential(
          (0): Conv2d(64, 64, kernel_size=(3, 3), stride=(1, 1), padding=(1, 1))
          (1): ReLU(inplace)
          (2): Conv2d(64, 64, kernel_size=(3, 3), stride=(1, 1), padding=(1, 1))
        )
      )
      (16): Conv2d(64, 64, kernel_size=(3, 3), stride=(1, 1), padding=(1, 1))
    )
    (tail): Sequential(
      (0): Upsampler(
        (0): Conv2d(64, 256, kernel_size=(3, 3), stride=(1, 1), padding=(1, 1))
        (1): PixelShuffle(upscale_factor=2)
        (2): ReLU(inplace)
        (3): Conv2d(64, 256, kernel_size=(3, 3), stride=(1, 1), padding=(1, 1))
        (4): PixelShuffle(upscale_factor=2)
        (5): ReLU(inplace)
      )
      (1): Conv2d(64, 3, kernel_size=(3, 3), stride=(1, 1), padding=(1, 1))
    )
  )
  (CALayer_head): MultiPoolingSpatialAttn(
    (compress1): ChannelPool(
      (maxpool): AdaptiveMaxPool1d(output_size=1)
      (avgpool): AdaptiveAvgPool1d(output_size=1)
    )
    (compress2): ChannelPool(
      (maxpool): AdaptiveMaxPool1d(output_size=2)
      (avgpool): AdaptiveAvgPool1d(output_size=2)
    )
    (compress3): ChannelPool(
      (maxpool): AdaptiveMaxPool1d(output_size=4)
      (avgpool): AdaptiveAvgPool1d(output_size=4)
    )
    (spatial1): BasicConv(
      (conv): Conv2d(4, 8, kernel_size=(7, 7), stride=(1, 1), padding=(3, 3), bias=False)
      (bn): BatchNorm2d(8, eps=1e-05, momentum=0.01, affine=True, track_running_stats=True)
    )
    (spatial2): BasicConv(
      (conv): Conv2d(8, 8, kernel_size=(7, 7), stride=(1, 1), padding=(3, 3), bias=False)
      (bn): BatchNorm2d(8, eps=1e-05, momentum=0.01, affine=True, track_running_stats=True)
    )
    (spatial3): BasicConv(
      (conv): Conv2d(16, 8, kernel_size=(7, 7), stride=(1, 1), padding=(3, 3), bias=False)
      (bn): BatchNorm2d(8, eps=1e-05, momentum=0.01, affine=True, track_running_stats=True)
    )
  )
  (CALayer_tail): MultiPoolingSpatialAttn(
    (compress1): ChannelPool(
      (maxpool): AdaptiveMaxPool1d(output_size=1)
      (avgpool): AdaptiveAvgPool1d(output_size=1)
    )
    (compress2): ChannelPool(
      (maxpool): AdaptiveMaxPool1d(output_size=2)
      (avgpool): AdaptiveAvgPool1d(output_size=2)
    )
    (compress3): ChannelPool(
      (maxpool): AdaptiveMaxPool1d(output_size=4)
      (avgpool): AdaptiveAvgPool1d(output_size=4)
    )
    (spatial1): BasicConv(
      (conv): Conv2d(4, 8, kernel_size=(7, 7), stride=(1, 1), padding=(3, 3), bias=False)
      (bn): BatchNorm2d(8, eps=1e-05, momentum=0.01, affine=True, track_running_stats=True)
    )
    (spatial2): BasicConv(
      (conv): Conv2d(8, 8, kernel_size=(7, 7), stride=(1, 1), padding=(3, 3), bias=False)
      (bn): BatchNorm2d(8, eps=1e-05, momentum=0.01, affine=True, track_running_stats=True)
    )
    (spatial3): BasicConv(
      (conv): Conv2d(16, 8, kernel_size=(7, 7), stride=(1, 1), padding=(3, 3), bias=False)
      (bn): BatchNorm2d(8, eps=1e-05, momentum=0.01, affine=True, track_running_stats=True)
    )
  )
  (head): Sequential(
    (0): Conv2d(3, 64, kernel_size=(3, 3), stride=(1, 1), padding=(1, 1))
  )
  (body): Sequential(
    (0): ResBlock(
      (body): Sequential(
        (0): Conv2d(64, 64, kernel_size=(3, 3), stride=(1, 1), padding=(1, 1))
        (1): ReLU(inplace)
        (2): Conv2d(64, 64, kernel_size=(3, 3), stride=(1, 1), padding=(1, 1))
      )
    )
    (1): ResBlock(
      (body): Sequential(
        (0): Conv2d(64, 64, kernel_size=(3, 3), stride=(1, 1), padding=(1, 1))
        (1): ReLU(inplace)
        (2): Conv2d(64, 64, kernel_size=(3, 3), stride=(1, 1), padding=(1, 1))
      )
    )
    (2): ResBlock(
      (body): Sequential(
        (0): Conv2d(64, 64, kernel_size=(3, 3), stride=(1, 1), padding=(1, 1))
        (1): ReLU(inplace)
        (2): Conv2d(64, 64, kernel_size=(3, 3), stride=(1, 1), padding=(1, 1))
      )
    )
    (3): ResBlock(
      (body): Sequential(
        (0): Conv2d(64, 64, kernel_size=(3, 3), stride=(1, 1), padding=(1, 1))
        (1): ReLU(inplace)
        (2): Conv2d(64, 64, kernel_size=(3, 3), stride=(1, 1), padding=(1, 1))
      )
    )
    (4): ResBlock(
      (body): Sequential(
        (0): Conv2d(64, 64, kernel_size=(3, 3), stride=(1, 1), padding=(1, 1))
        (1): ReLU(inplace)
        (2): Conv2d(64, 64, kernel_size=(3, 3), stride=(1, 1), padding=(1, 1))
      )
    )
    (5): ResBlock(
      (body): Sequential(
        (0): Conv2d(64, 64, kernel_size=(3, 3), stride=(1, 1), padding=(1, 1))
        (1): ReLU(inplace)
        (2): Conv2d(64, 64, kernel_size=(3, 3), stride=(1, 1), padding=(1, 1))
      )
    )
    (6): ResBlock(
      (body): Sequential(
        (0): Conv2d(64, 64, kernel_size=(3, 3), stride=(1, 1), padding=(1, 1))
        (1): ReLU(inplace)
        (2): Conv2d(64, 64, kernel_size=(3, 3), stride=(1, 1), padding=(1, 1))
      )
    )
    (7): ResBlock(
      (body): Sequential(
        (0): Conv2d(64, 64, kernel_size=(3, 3), stride=(1, 1), padding=(1, 1))
        (1): ReLU(inplace)
        (2): Conv2d(64, 64, kernel_size=(3, 3), stride=(1, 1), padding=(1, 1))
      )
    )
    (8): ResBlock(
      (body): Sequential(
        (0): Conv2d(64, 64, kernel_size=(3, 3), stride=(1, 1), padding=(1, 1))
        (1): ReLU(inplace)
        (2): Conv2d(64, 64, kernel_size=(3, 3), stride=(1, 1), padding=(1, 1))
      )
    )
    (9): ResBlock(
      (body): Sequential(
        (0): Conv2d(64, 64, kernel_size=(3, 3), stride=(1, 1), padding=(1, 1))
        (1): ReLU(inplace)
        (2): Conv2d(64, 64, kernel_size=(3, 3), stride=(1, 1), padding=(1, 1))
      )
    )
    (10): ResBlock(
      (body): Sequential(
        (0): Conv2d(64, 64, kernel_size=(3, 3), stride=(1, 1), padding=(1, 1))
        (1): ReLU(inplace)
        (2): Conv2d(64, 64, kernel_size=(3, 3), stride=(1, 1), padding=(1, 1))
      )
    )
    (11): ResBlock(
      (body): Sequential(
        (0): Conv2d(64, 64, kernel_size=(3, 3), stride=(1, 1), padding=(1, 1))
        (1): ReLU(inplace)
        (2): Conv2d(64, 64, kernel_size=(3, 3), stride=(1, 1), padding=(1, 1))
      )
    )
    (12): ResBlock(
      (body): Sequential(
        (0): Conv2d(64, 64, kernel_size=(3, 3), stride=(1, 1), padding=(1, 1))
        (1): ReLU(inplace)
        (2): Conv2d(64, 64, kernel_size=(3, 3), stride=(1, 1), padding=(1, 1))
      )
    )
    (13): ResBlock(
      (body): Sequential(
        (0): Conv2d(64, 64, kernel_size=(3, 3), stride=(1, 1), padding=(1, 1))
        (1): ReLU(inplace)
        (2): Conv2d(64, 64, kernel_size=(3, 3), stride=(1, 1), padding=(1, 1))
      )
    )
    (14): ResBlock(
      (body): Sequential(
        (0): Conv2d(64, 64, kernel_size=(3, 3), stride=(1, 1), padding=(1, 1))
        (1): ReLU(inplace)
        (2): Conv2d(64, 64, kernel_size=(3, 3), stride=(1, 1), padding=(1, 1))
      )
    )
    (15): ResBlock(
      (body): Sequential(
        (0): Conv2d(64, 64, kernel_size=(3, 3), stride=(1, 1), padding=(1, 1))
        (1): ReLU(inplace)
        (2): Conv2d(64, 64, kernel_size=(3, 3), stride=(1, 1), padding=(1, 1))
      )
    )
    (16): Conv2d(64, 64, kernel_size=(3, 3), stride=(1, 1), padding=(1, 1))
  )
  (tail): Sequential(
    (0): Upsampler(
      (0): Conv2d(64, 256, kernel_size=(3, 3), stride=(1, 1), padding=(1, 1))
      (1): PixelShuffle(upscale_factor=2)
      (2): ReLU(inplace)
      (3): Conv2d(64, 256, kernel_size=(3, 3), stride=(1, 1), padding=(1, 1))
      (4): PixelShuffle(upscale_factor=2)
      (5): ReLU(inplace)
    )
    (1): Conv2d(64, 3, kernel_size=(3, 3), stride=(1, 1), padding=(1, 1))
  )
)
[Epoch 1]	Learning rate: 1.00e-4
[1600/15600]	[L1: 30.2344]	[L1: 50.2286]	21.0+56.1s
[3200/15600]	[L1: 27.5223]	[L1: 46.4197]	20.0+14.0s
[4800/15600]	[L1: 26.0340]	[L1: 44.8131]	20.1+21.3s
[6400/15600]	[L1: 25.2893]	[L1: 44.0364]	20.1+11.1s
[8000/15600]	[L1: 24.7651]	[L1: 43.3047]	20.6+5.4s
[9600/15600]	[L1: 24.4688]	[L1: 42.9464]	20.6+4.4s
…
